Session5/mnist_model_20241214_230717.pth (torch, 106276 bytes, 26 tensors)

conv1.weight f4 [16, 1, 3, 3]
00000000: a700 193d 77ee 433e c23d c9be b76e 703e
00000010: 522a 1cbe fb8a 2cbd 0399 313e 63db 3f3e
00000020: 53d1 19be e504 c53d f05f 09be 7a5a 7cbe
00000030: f910 643e 486f 1d3e 373c 48be c3cf b2bd
00000040: ab1a a43d 9af5 1d3e 3902 45bd 0107 1c3d
00000050: 5904 713e 4e8a 2cbe 1fa4 413d 8aa1 e33d
00000060: 504a 5dbe 70f9 a2be 8676 2cbe 4797 cb3d
00000070: 6278 5bbe e7df 58be 4a03 23bb 95a7 c63e
00000080: 82b9 60be 72aa d1bd dfc3 79bd e92b 7c3d
00000090: 413f e3bd 9045 63be 82d6 26be 2a69 64be
000000a0: 447e 61be e780 44be 65b4 933e 54b8 223e
000000b0: c2c1 db3d 8d16 aabe d85b f9bd 2595 823e
000000c0: 829b 253e 718d 5c3e 14e8 3c3e a723 58bc
000000d0: 2fc7 ddbc cd2b 89be c2ed 4b3e 90ac adbe
000000e0: e625 5cbb 14bb bcbe 0289 983e 6650 20bc
000000f0: 8026 b1bc bc87 9d3e 4ded 1fbe 1241 b43e
00000100: 1115 8dbe a9da 08be 97e3 d6bd d41c b0be
00000110: b832 883e b817 acbe eac3 273d d305 edbd
00000120: 63bb ac3e 00e7 773e f842 363e 3d3d 7cbe
00000130: 1f08 e1bd 9294 29bd 8a56 25bd 391b 98bd
00000140: a38e 7cbe 2741 85be 66f3 a0bb bfdf bc3c
00000150: 234e e7bb 249f 9bbe 519c 76be dfdf 463e
00000160: 8255 fc3d ddd7 fdbd 6ac4 8bbe 6723 8cbe
00000170: edc8 753e 2e73 69be ce56 d13d adf2 46bd
00000180: 6000 66be 44e4 a6bc f060 a73e c6c3 443d
00000190: 3c72 183e 91ee febd c8d2 46bd 8048 f03d
000001a0: 0e70 2abe 9a95 a5bd ac0c 2d3e c46c 053e
000001b0: 50fa 21be 5fb9 5ebe 6491 a0be 599a 7abe
000001c0: 0d51 62bd 8e0f 10be fbe3 b63e 0b63 1f3e
000001d0: 94e6 a73e 2ba9 743d 079d 8d3e 0552 873e
000001e0: 9c73 58be cf9c 07be 2e6f d5bd f18c 97bd
000001f0: 677a 3fbe e4cf f73d ac25 79be ee0e a43e
00000200: bbe6 dabc cef2 1dbe 1bfc 803c 2a7f 833e
00000210: 3052 8d3c cf8c 0a3e 63e9 36be 73b7 583d
00000220: d5c8 50be eea9 74bd 2309 bc3d e5f8 c43d
00000230: 016c bfbe a024 c1bd ed74 66bc 35fa 3e3e
0.037354138 0.19133936 -0.3930493 0.23479734 -0.15250519 -0.04212473 0.17343526 0.18736033
-0.15021257 0.09620074 -0.13415504 -0.24643889 0.222721 0.15374482 -0.1955422 -0.08731034
0.08012899 0.15425721 -0.048097823 0.038092617 0.23536815 -0.16849634 0.04727566 0.111147955
-0.21610379 -0.3183093 -0.16842088 0.09940963 -0.21432641 -0.21179162 -0.0024873787 0.3879973
-0.21945766 -0.10237588 -0.060977813 0.061565313 -0.11096049 -0.22194505 -0.16292766 -0.22305742
-0.22020823 -0.19189797 0.28848568 0.15890628 0.10730316 -0.3322033 -0.12175721 0.25504413
0.16172603 0.2153833 0.18447906 -0.013192094 -0.027072517 -0.2679123 0.19914916 -0.33920717
-0.0033591925 -0.3686148 0.2979203 -0.0097847935 -0.021624804 0.3076762 -0.15617867 0.35205895
-0.27555135 -0.13364662 -0.10492628 -0.34396994 0.26601195 -0.33611846 0.040958323 -0.115733765
0.33736715 0.24209213 0.17798984 -0.24632736 -0.10987877 -0.041401453 -0.040365733 -0.07427067
-0.24663787 -0.2602627 -0.004911828 0.02305591 -0.007058875 -0.30394852 -0.24083067 0.19421338
0.12320997 -0.12394688 -0.2729829 -0.2737076 0.24002428 -0.22797844 0.10221635 -0.048571277
-0.2246108 -0.020372517 0.32691145 0.048038267 0.14887327 -0.12447847 -0.04854086 0.11732578
-0.16644308 -0.08085175 0.16899365 0.13029772 -0.15818143 -0.21750401 -0.31360924 -0.24472941
-0.055253077 -0.14068434 0.3572081 0.15565126 0.32793105 0.059731644 0.27658865 0.26429763
-0.21137851 -0.13243411 -0.104215965 -0.07399929 -0.18699037 0.12100199 -0.24330777 0.3204264
-0.026721349 -0.15424654 0.015745213 0.25682956 0.017251104 0.13530277 -0.17862467 0.052909326
-0.20389111 -0.05973237 0.0918143 0.09617785 -0.37387088 -0.09430814 -0.014065963 0.18650134

conv1.bias f4 [16]
00000000: 8f8e 07be ebe1 a2be 106e 86be f0cf 663e
00000010: 6d5c 8dbe 282d d73e fcad 35be 9da3 183e
00000020: c50e 53be 2657 2cbe 679c 1abe 27ca 7c3e
00000030: 7b65 8bbd cae2 793e 21a3 50bd fef5 c1bd
-0.13237976 -0.31812987 -0.26255846 0.2254026 -0.27609578 0.4202664 -0.17742151 0.14906164
-0.20611103 -0.1683012 -0.15098725 0.2468649 -0.06806465 0.2440292 -0.05093682 -0.094707474

bn1.weight f4 [16]
00000000: b8cc 803f 5c7f 6c3f 6175 963f 2948 623f
00000010: 18ca 833f ee4d 823f fff9 763f 6465 983f
00000020: 4bb5 743f 249a 903f e716 8f3f f4ea 6a3f
00000030: a23c 893f 40ce 883f b9d8 5d3f 8285 603f
1.0062475 0.92381835 1.1754571 0.8839136 1.0296049 1.0180032 0.96475214 1.1905942
0.9558913 1.129704 1.1178864 0.9176476 1.0721629 1.0687943 0.8665882 0.87703717

bn1.bias f4 [16]
00000000: 39bf e7bc bc4b 1bbe 21de a1bc 2fbe 563d
00000010: 40c5 e73d f009 ccbd a9a0 46bd 83ab 9e3d
00000020: a382 78bd e737 a03c dc43 a0bc b802 13be
00000030: 6068 743e e4fa d8bd 5ece babd 5eea c03d
-0.028289424 -0.15165609 -0.01975924 0.052427467 0.11316919 -0.09962833 -0.04849306 0.07747557
-0.06067146 0.019557906 -0.019563608 -0.14356506 0.23867941 -0.105947286 -0.09121393 0.09419702

bn1.running_mean f4 [16]
00000000: 7c28 08be b41d a4be a2a5 8dbe 250f 593e
00000010: 7e5a 91be a8b5 d33e c0df 3bbe 22b5 0b3e
00000020: 2b5b 4ebe 1cc4 37be e7f0 23be 050f 7f3e
00000030: e698 90bd a5ab 803e 9ada 5cbd 5cb8 d0bd
-0.13296694 -0.32053912 -0.2766543 0.21197183 -0.28389353 0.4134953 -0.18347073 0.13643315
-0.20151965 -0.17945904 -0.16009866 0.24908073 -0.07060413 0.25130954 -0.053919412 -0.10191414

bn1.running_var f4 [16]
00000000: 1998 553e 1a14 d13d a8b7 ae3e 99ec ba3d
00000010: cf0b f43e 74c1 023e 5698 8d3d 9250 e13e
00000020: 1d81 793e 7b3e a63e 6314 e33e fe14 5a3d
00000030: 028a fb3e 9561 183e 7a4d d43d ff16 033e
0.20858802 0.10208912 0.34124494 0.09127159 0.4766526 0.12769109 0.069138214 0.44006783
0.24365659 0.32469544 0.4435149 0.053242676 0.4912873 0.14880975 0.1036634 0.12801741

conv2.weight f4 [32, 16, 3, 3]
00000000: 640b db3d ef57 333e cd12 5ebd a97f b63d
00000010: 872a b03d b4da ccbd d9b7 0abc cb66 043e
00000020: 8ee8 17be 47c2 073e 78fd 133e c962 35bd
00000030: bb38 b5bc 6e1d 7b3d 8dce 6ebc 3b6f 2f3d
00000040: 6299 dc3c 87b8 3ebd 4069 d73d d211 df3d
00000050: a566 a63d ad7d 8bbd b112 61bc 19be 1d3d
00000060: 5201 01bd b74e b5bd a9ed d6bc 1ee2 043e
00000070: 123c ee3c 090b 77bd 94d2 333c ba50 b6bd
00000080: 6e5b f4bc 8942 00bd 81c3 d43c aeda 103d
00000090: 43a8 b8bc 7be6 38bd b6c3 47be 233f 8cbd
000000a0: d9b1 b0bd 42e1 73bc 54ec f5bd d297 58bd
000000b0: f73e cbbd c061 2abc 3a8d 8bbd b570 1dbe
000000c0: 4f3d 783c e270 edbd 7908 4cbc cdef 003e
000000d0: 4962 56bd beca 503d c4c5 b23c 9ac1 e9bd
000000e0: d8c0 01be fea9 d53d e2d1 103c 1882 76bd
000000f0: f8ad 08bb a6b4 8fbd 6719 ab3c e048 41bd
00000100: fd48 10be 3f39 e0bd af6b d53d 5943 8f3d
00000110: 9ba9 433e c390 a93d e480 823e 24cd 133e
00000120: 9144 93bc eb1b cdbc 850b 73bd 3826 703d
00000130: cf7d 88bd 8ff9 87bd d2ec 143e 9ba1 90bd
00000140: 865d f5bd 6519 273c 7129 823d 03e1 94bd
00000150: d28f 67bd 66a5 76bd 7763 fabd 211d 4dbe
00000160: 5dc8 bcbd dc40 97bd 8bff a7bc 0725 14bd
00000170: 2df3 10bd e0ca d73c 5ca8 3e3e bd79 233e
00000180: 93a3 2dbc 38bc 343e 763f 023e cf62 87bc
00000190: 307d 2b3d cab4 11bd d0fe 0e3e 15c6 0c3c
000001a0: 9b1f ca3b 7c3a 89bd 58cb 81bd 54a6 343d
000001b0: 6a03 da3c fef2 0dbd 0491 09be b016 fabd
000001c0: c473 dbbd 4477 49bc f7f4 f7bd 1749 0dbe
000001d0: a46f 1e3c eb2c 16bd a91d abbc 9ea2 b4bd
000001e0: 4659 873c f824 743c 36b2 a5bd 2aa4 fbbd
000001f0: 53c2 5cbd 9b49 7ebc 68be 9dbd 5f75 a23b
00000200: 51f8 32bd 1e19 b53d 0372 1a3d 7081 c03c
00000210: 4630 8c3b 6d60 2dbe 7ebd fa3d 2e71 813c
00000220: a28f 1a3d f44e 92bd 007b 413c 0520 88bc
00000230: e516 0a3d 9429 f8bd 3922 593d 6280 dcbc
00000240: a193 f93d 2c31 10bd 7cc1 f83d 3625 9abd
00000250: a9aa d9bc 4372 89bc dd80 273e a3dd 40bd
00000260: de47 21be cfc4 183e e09d 7bbd a80b 623a
00000270: ac34 b6bd 1bd0 983c ff63 503e e030 a53d
00000280: 6966 02bd 7050 18bc 818b a8bc 632e 2cbd
00000290: e9cc 11bc fecc ae3c 48a6 0e3e 3906 f23d
000002a0: 56f1 25bd 0ed0 8f3d 6896 64bd c68d e23d
000002b0: 47f3 133b 15d9 e83b 301d 65bd 3098 083e
000002c0: 0964 033d 413e 283d fdfd 85bd ee05 9c3c
000002d0: 9b51 1cbd 07fc df3d 122a a23c e2cf 88bd
000002e0: da2c 923c 4356 f83c 804b 29be af88 39bc
000002f0: 8814 eebd c822 7cbc d6cd 813d bbd6 84bc
00000300: 3188 b23d c2d7 3ebd ca29 9fbd c650 cabc
00000310: 7c7a 2c3d c2fa 21bd 6218 463d 4c69 17bd
00000320: b480 2b3d 7d30 853d 25e0 a6bc a127 ed3c
00000330: f318 7f3d 1f8a 8d3c e642 5d3d cb78 a3bd
00000340: e43e 893c ed38 0cbd fc45 303b 9f05 a3bc
00000350: 5fb2 68be a069 4cbc f4ff 2dbd 2b58 98be
00000360: 370b 283d 8295 11bd db83 81bd 04e8 b73c
00000370: 374c 013d 6f36 b33b 48af 4cbc 0628 9e3c
00000380: 13c4 1bbd 2a2e aebc dbe6 bd3d f60f b6bb
00000390: e42e babc bc27 043d 4463 a93d dbc8 adbd
000003a0: 7bf6 7ebc 05c5 f83a a4e5 b2bd 3982 d3bd
000003b0: 6af4 26be c6d2 47be 25c4 6cbe 6b5c 87be
000003c0: dc48 3c3d eca1 783d 7647 d2bd acd2 a73d
000003d0: 2e0a 3f3c 5b82 2abd 33b8 963d d24a 043d
000003e0: 188d 1a3e 2388 463d 03ce 84bc b029 173e
000003f0: 9606 9a3d 1ecd 923d 986b 8b3d 1567 eabd
0.10695532 0.17514013 -0.05421715 0.08911068 0.086018614 -0.10002652 -0.008466684 0.12929837
-0.14834806 0.13257705 0.1445216 -0.044283662 -0.022121778 0.061307363 -0.014575613 0.042830687
0.026928607 -0.046562698 0.10518122 0.10892071 0.08125047 -0.0681108 -0.013737367 0.03851137
-0.0314954 -0.08852904 -0.026236372 0.12976882 0.029081378 -0.06031326 0.010975499 -0.08902116
-0.029828753 -0.031313453 0.02597213 0.0353648 -0.022541171 -0.04514168 -0.19508252 -0.0684798
-0.08627672 -0.014885249 -0.12007967 -0.052879162 -0.09924119 -0.010399282 -0.06814046 -0.15375026
0.015151336 -0.11593796 -0.012453192 0.12591477 -0.052339826 0.0509746 0.021822818 -0.1141388
-0.1267122 0.10432814 0.008839102 -0.06018266 -0.0020855647 -0.07016878 0.020886136 -0.04718864
-0.14090343 -0.10948419 0.1042093 0.069952674 0.19107668 0.08279564 0.2548896 0.14433724
-0.017977031 -0.025037726 -0.059337158 0.0586302 -0.06664621 -0.066393964 0.14543465 -0.07062074
-0.11980729 0.010198926 0.063555606 -0.0726948 -0.056533642 -0.06021633 -0.12226003 -0.20030643
-0.09217904 -0.07385418 -0.020507595 -0.036168125 -0.03538816 0.026341856 0.18618912 0.15964408
-0.010598081 0.17649925 0.12719521 -0.016526608 0.041867435 -0.035572805 0.13964391 0.008592148
0.0061683184 -0.06700608 -0.06337613 0.044103935 0.026612956 -0.034655564 -0.13434225 -0.122113585
-0.1071544 -0.012296502 -0.1210727 -0.13797413 0.009670172 -0.03666393 -0.020888167 -0.08820079
0.016522061 0.014901392 -0.08090632 -0.12287171 -0.05389626 -0.015520479 -0.07702333 0.0049578394
-0.043693844 0.08842681 0.037706386 0.02349922 0.0042782156 -0.16931315 0.12243174 0.015801039
0.037734635 -0.07143965 0.011809111 -0.01661683 0.03371324 -0.121173054 0.053011153 -0.026916686
0.12186361 -0.035203144 0.12146279 -0.07526629 -0.026570635 -0.016778117 0.16357751 -0.04708637
-0.15750071 0.14918827 -0.06142986 0.0008622953 -0.08896765 0.01865392 0.20350645 0.08065963
-0.031835947 -0.009296522 -0.020574333 -0.042036425 -0.008898952 0.021337982 0.13930619 0.11817593
-0.04051336 0.07022105 -0.0558075 0.110621974 0.0022575425 0.0071059563 -0.05593604 0.13339305
0.032077823 0.041074995 -0.06542585 0.019045796 -0.038163763 0.10936742 0.019795451 -0.066802755
0.017843653 0.03031457 -0.16532707 -0.011324092 -0.1162501 -0.015389152 0.06338088 -0.016215673
0.08717383 -0.04659248 -0.077716425 -0.024696719 0.042108998 -0.039545782 0.048363097 -0.036965653
0.041870788 0.06503389 -0.020370552 0.02894956 0.062279653 0.017277775 0.054018877 -0.07982024
0.016753621 -0.034233976 0.0026897183 -0.019900141 -0.22724293 -0.012476355 -0.042480424 -0.29754767
0.04102632 -0.035542972 -0.063239776 0.0224495 0.031566825 0.0054691355 -0.012492962 0.019306194
-0.038028788 -0.021262247 0.09272548 -0.005556102 -0.022727437 0.032264456 0.082708865 -0.08485576
-0.015561695 0.0018979615 -0.08735207 -0.103275724 -0.16304174 -0.19513997 -0.23121698 -0.26437697
0.04596792 0.060701296 -0.10267536 0.08194479 0.011660142 -0.041628223 0.07359352 0.032297917
0.15092885 0.048469674 -0.016211515 0.14761996 0.075207874 0.07168029 0.06807631 -0.114454426

conv2.bias f4 [32]
00000000: 18c1 053e 6102 aabd 8bfe 68bd 20a8 643d
00000010: 8c61 a03d 39f8 3b3d 8394 403d 1028 2ebe
00000020: ecf0 97bd 3ee8 183d a6de 1fbc b2cf bc3d
00000030: db74 dbbc 6886 263e 5ec1 14be 63ee 0a3c
00000040: 56b9 94bd d346 b5bd f132 a4bd 4512 323c
00000050: abbe 973d 2acd 83bc 150f c33d d9c8 afbd
00000060: 74bb 8b3c 1713 153d 104e 213d 40e9 3bbc
00000070: 1765 e23b ce87 533e 642b 29bc e3cd 423d
0.1306194 -0.08301235 -0.056883376 0.0558244 0.078311056 0.04589102 0.04701663 -0.1700747
-0.07418999 0.03733086 -0.009757673 0.09219302 -0.02678912 0.1626221 -0.14526889 0.008479687
-0.072619125 -0.08851399 -0.08017529 0.010868614 0.07409414 -0.01608904 0.09524361 -0.085832305
0.017057158 0.03639516 0.039381087 -0.011469185 0.0069090235 0.20657274 -0.010325287 0.04755963

bn2.weight f4 [32]
00000000: d22a 933f d454 843f b88f 843f 29c9 8e3f
00000010: 310b 8f3f 6412 5c3f 1770 8c3f 6987 673f
00000020: f69c 823f e44e 703f 8bcb 843f 06a7 983f
00000030: 0a02 7c3f 7b7d 643f 646f 6b3f b269 803f
00000040: e50c 6f3f 5588 6e3f 9b8f 593f 3ea8 6e3f
00000050: dadd 713f e052 5e3f d870 5b3f 28a5 883f
00000060: b5ec 8d3f e1b3 5c3f d7c5 8e3f c7a5 863f
00000070: 3442 923f 707e 793f 5901 823f cb61 853f
1.1497443 1.0338387 1.035636 1.1155139 1.117529 0.8596556 1.0971707 0.90440995
1.0204151 0.9387038 1.0374616 1.1925972 0.9844061 0.8925397 0.91966844 1.0032256
0.9337905 0.93176776 0.8498475 0.9322547 0.94479144 0.8684521 0.8571906 1.0675402
1.1087862 0.86211973 1.1154126 1.0519341 1.1426454 0.97458553 1.0156661 1.0420469

bn2.bias f4 [32]
00000000: 9556 c0bd cdcb 41be 9d32 59bd d615 17bd
00000010: 67c9 4dbc dc33 a7bd 4123 d7bd b89d 3cbe
00000020: 2db4 dcbd f60e 983d 91a6 d3bd 1d0f 8fbc
00000030: ae07 b3bd 304f 66be 06ab 43be 69e0 1cbe
00000040: 1ad5 0dbd 0516 74be 88dd cdbd 7ea8 dabd
00000050: 3b4d b4ba fc0b 31be 9c4c 86bc 629f b9bd
00000060: bf9a 3bbd 7e6a 03be c2ad 17be af31 68ba
00000070: a12d b03b b78e 9dbd a6cb 15bd 8984 8cbb
-0.09391514 -0.189254 -0.053026784 -0.03688606 -0.012560225 -0.08164188 -0.10504771 -0.1841954
-0.10776553 0.074247286 -0.103345044 -0.017463261 -0.08741699 -0.22491145 -0.19108209 -0.1531998
-0.034627058 -0.23836525 -0.10052019 -0.106766686 -0.0013755927 -0.17289728 -0.016393952 -0.09063603
-0.045801874 -0.12833592 -0.14812377 -0.0008857501 0.005376533 -0.07693236 -0.036571167 -0.0042882604

bn2.running_mean f4 [32]
00000000: 128a 01bf b151 dcbe fa2c 8abf e46b 8c3e
00000010: 9f96 5fbf c6ee a23d 6893 4fbf 8431 90be
00000020: 600f cbbf 6c08 8ebf 3f8e 31bf b84d 20be
00000030: 528e cbbe e697 953e 5489 bbbf 9c09 3ebf
00000040: 2493 063f c071 61bf 3f19 b13d 060b 72be
00000050: 8654 4bbe 33b9 863e 4d3d e0be 7ef7 d5be
00000060: 7b52 16bf be55 92bf 2d2d 08bf 55c4 17bf
00000070: b78d a63f 7d1b 803e 2cfb 163f 1eee 12bf
-0.50601304 -0.43031076 -1.0794976 0.27426064 -0.87339205 0.07955699 -0.810843 -0.28162777
-1.5864067 -1.109632 -0.69357675 -0.15654647 -0.3975702 0.29217452 -1.4651284 -0.7423341
0.5256827 -0.88064194 0.086473934 -0.23637018 -0.19856462 0.2631317 -0.4379677 -0.41790384
-0.58719605 -1.1432416 -0.5319393 -0.59283954 1.3011998 0.25020972 0.5897701 -0.5739459

bn2.running_var f4 [32]
00000000: 8369 ae3f dd27 a13f c5ad 3740 dcfd 0940
00000010: 5fa8 0c40 ba6a 923f 3a7b db3f 8f34 633f
00000020: 7fe0 0140 022b 973f d023 2140 7bd6 1240
00000030: 7367 ac3f d13f b73f d42c cf3f b42f b53f
00000040: 7798 ab3f ff69 893f 0b68 893f 4467 0240
00000050: 9fa7 0a40 8e4e 493f ac9d da3f cf7a e23f
00000060: 8612 4940 eb68 a43f 5d04 a03f 5f5e 2c40
00000070: 5be1 9e3f 07fa f13f ec1b c13f 9133 0540
1.362595 1.259029 2.869981 2.1561193 2.1977766 1.143882 1.7146981 0.88752073
2.0293272 1.181 2.5178108 2.2943408 1.346907 1.431635 1.6185555 1.4155183
1.3405904 1.0735472 1.0734876 2.0375528 2.1664808 0.7863549 1.7079368 1.7693728
3.1417556 1.2844518 1.2501332 2.69326 1.2412523 1.8904427 1.5086646 2.0812724

conv3.weight f4 [32, 32, 3, 3]
00000000: d521 2cbd b344 953c b005 46bd e1d1 76bd
00000010: eef2 ddbb 368b ad3d 7c33 ed39 e204 b2bc
00000020: 6828 623d e71c d93d 9c94 2bbd 556b b33d
00000030: 1883 b9bd 1baf 3cbc 412b c03b c39c 653d
00000040: 12f1 30bd f5d2 f0bc 6d1a 183d ad4e 8fbd
00000050: 8c36 c63b 116d 693d dbaf a0bd 30d2 0c3d
00000060: 9531 653d 2b1d ba3d 40f3 573d ba66 f2bc
00000070: 348f abbc ee68 8e3d bc78 3fbd c358 92bd
00000080: 88c0 c0bb 4818 933d 6b1f e53d 4a5a cf3d
00000090: bad4 ccbb 0f4c 9f3d e9e5 9fbd 76a3 8d3c
000000a0: 208d b33c 7a1b 00be cda0 51bd 5090 6dbd
000000b0: f35f b6bd dca4 103d c098 9239 60ae c939
000000c0: 6b9f 7ebd 2d51 573d faa8 e9bb ba55 413d
000000d0: 4f37 143d b700 4e3d b3bb bcbd a337 f63b
000000e0: 2605 a3bd 3c69 68bd 7bef 56bc 839d 103d
000000f0: c531 ce3d 8820 6fbd 946a 8dbd 0725 b3bb
00000100: 7803 f3bc 290e a0bd ceee 22bd f4c0 02bd
00000110: 728b 993c ffcc 3f3d b056 a03c 596f d53c
00000120: 986b 1d3e afc1 003e 256e e8bc b095 bfbc
00000130: 1537 d43c bd1c a53c 4014 b13d 714a 8f3d
00000140: 20a8 053e 204e 96bc b56e 9abc 8176 4a3d
00000150: 22ce 54bd 9d75 153c ba95 dc3b 1afe 61bb
00000160: 2dc8 77bd 9996 fdbc 53eb c3bb d866 0b3d
00000170: 0be3 2ebb 8559 803d 5c99 53bd 7c09 37bd
00000180: 6a2f d2bc 849f 7b3d 30d8 25bd b1b0 4cbd
00000190: 41fb 94bd c4db a53c 92d4 9d3d 957b f0bd
000001a0: dd2a 45bd acae b73c 5cac 273d 05e3 17bb
000001b0: 73aa 00bd 20a6 7fbc b80d 183d aab0 86bd
000001c0: 65d1 a13d 47ae d4bd b2e1 14bc 22c2 1ebb
000001d0: 9ec6 0b3e ba68 b63d 4ed7 ad3d 278e 4f3b
000001e0: bc1a a9bd 1774 603d 28f0 cc3c de8b 693d
000001f0: b1db d7bc 53bc 2cbd fc33 963d efb3 8d3d
00000200: 0ded 19be 82cc 3e3d f45d 843d 0e16 32bb
00000210: 148b ea3c 7c3f bcbc 7d7d a2bd 71fd 8cbc
00000220: 634f bcbd dafd c4bd f74d 33bd 7516 e4bd
00000230: ec5a 3dbb de2f ecbd f377 dcbd 954c 1abd
00000240: d17e bcbc 8980 e4bd d14b d6bd 47f5 94bd
00000250: d0fb 5abd 8936 a33d 5ea7 6c3d dc3a f73c
00000260: 06c9 bebd 7ac5 44bd c772 233c fb5b cd3b
00000270: a4ae 19bd 6a89 473d 946b 5b3d a7ab ab3d
00000280: e7a8 0f3d b68c f5bc 4d6f 833d 3038 44bc
00000290: d7c5 99bd d800 963d b4e1 843d ed99 813d
000002a0: c2ec 283d 5946 943c 17e8 b3bb 6a57 a73c
000002b0: 1a0d 3f3e 33fb e33b 0c13 7d3d f23c 283e
000002c0: 59ee 85bd a337 2dbc 9e35 4b3d 7401 afbd
000002d0: db1b c13d ad5d a5bd 58bf 05be f0da 893d
000002e0: 2e45 3ebd f3b0 823d 51ac f63d 0ca8 7abd
000002f0: 31a9 1dbc 985c 853d 061c 5e3d 48de 0f3d
00000300: 0492 383d fa29 80bd 8d9c 58bc 16b8 863b
00000310: ebb0 ae3c a24b 25bd 6fcc dabc 2d77 563c
00000320: bb5a 843d 5bcb 073d c01a 513d 41bd 0cbd
00000330: 4d0b 18bc d937 423b a598 153c de65 163d
00000340: 28b5 cb3d 4860 6abd 07c7 4bbd daef 5cbc
00000350: 8d52 3cbd 7892 77bd 87b6 183d 4209 463d
00000360: 147d 83bc d868 7ebe 3e04 02be 53e0 913d
00000370: c022 febd 43fa 6d3c fd8c d13c 5b86 adbd
00000380: 18c6 a9bc e89a 883b 094f f83d 7b0e 7d3d
00000390: e55f 2abc 9c51 8dbc ed8b 113d af56 713d
000003a0: 8e6b 7ebc 6746 fd3c 4e70 d53d 3378 023e
000003b0: 4634 1b3d db2c 853d f3cf 003e 619a 173c
000003c0: cb30 cbbc e757 1e3d 23a0 8cbd 7796 6dbd
000003d0: fec8 d23c 19d5 2e3d 6726 e93d ed25 b0bc
000003e0: e37e 853d 0d04 923d 07c7 893c 51d4 11bd
000003f0: e1cf b3bd 3963 1cbd ced1 72bc 84bb a83d
-0.042024452 0.018221235 -0.048345268 -0.06025875 -0.0067733442 0.08473818 0.0004524252 -0.021730844
0.055214316 0.10601216 -0.04188977 0.08760706 -0.09058207 -0.011516358 0.0058645313 0.056057703
-0.043198653 -0.029397467 0.037134577 -0.06997428 0.006048983 0.05698878 -0.07846042 0.034380138
0.05595549 0.090875946 0.052722216 -0.02959 -0.020942308 0.069536075 -0.046746 -0.07145836
-0.0058823265 0.07182366 0.11187633 0.10124643 -0.006250945 0.07778179 -0.07807524 0.017289858
0.02191788 -0.12510481 -0.051178742 -0.057998955 -0.089050196 0.035313472 0.00027961098 0.00038467627
-0.06216375 0.05256765 -0.0071307393 0.047200896 0.03618556 0.05029365 -0.09215488 0.0075139566
-0.07959966 -0.056740984 -0.01311862 0.035306465 0.100680865 -0.058380634 -0.06905094 -0.0054670605
-0.02966474 -0.07815201 -0.039778523 -0.031922296 0.01874325 0.04682636 0.019572586 0.026054071
0.15373075 0.12573884 -0.028372834 -0.023386806 0.025905171 0.020155305 0.086464405 0.069966204
0.13052416 -0.0183478 -0.018851617 0.04942942 -0.051954396 0.0091222795 0.006731716 -0.0034483732
-0.060493637 -0.0309556 -0.0059789806 0.034033626 -0.002668562 0.062670745 -0.051659927 -0.04468678
-0.025657374 0.061431423 -0.040489376 -0.049973194 -0.072744854 0.020246394 0.0770656 -0.117423214
-0.04813658 0.022422157 0.04093586 -0.0023176086 -0.031412553 -0.015603572 0.03712246 -0.06576665
0.07901267 -0.10384803 -0.009087013 -0.00242246 0.13649985 0.08906694 0.08488332 0.0031670423
-0.08257052 0.054798212 0.02501686 0.057018153 -0.026349874 -0.042171787 0.07334134 0.06919085
-0.15031834 0.046581753 0.06463233 -0.002717379 0.02863077 -0.02297949 -0.07934091 -0.017210694
-0.09194829 -0.09618731 -0.043775525 -0.11137096 -0.0028893305 -0.115325674 -0.10765066 -0.03767069
-0.02300969 -0.11157329 -0.104636796 -0.072733454 -0.053462803 0.07969386 0.0577768 0.030179434
-0.09315686 -0.04803989 0.0099760955 0.0062670684 -0.037520066 0.048715033 0.05356939 0.083823495
0.035073187 -0.029974323 0.06417713 -0.011976287 -0.07508438 0.0732438 0.06488362 0.06328187
0.041241415 0.01809995 -0.0054903137 0.020427424 0.18657342 0.0069574355 0.061785743 0.16429499
-0.06539602 -0.010572347 0.04961168 -0.08545199 0.09429141 -0.08074508 -0.13061273 0.06731212
-0.046452694 0.06381407 0.120445855 -0.06119542 -0.009622858 0.065118015 0.054225944 0.035124093
0.045061126 -0.062580064 -0.013220918 0.0041113 0.021324595 -0.040355332 -0.02670881 0.013089937
0.06462618 0.03315292 0.0510509 -0.034360174 -0.009280038 0.0029635339 0.009130632 0.036718242
0.09946662 -0.057220727 -0.049750354 -0.013484919 -0.045977164 -0.060442418 0.037283447 0.048348673
-0.016050853 -0.24844682 -0.12696931 0.071228646 -0.12408972 0.014524999 0.025579924 -0.08472892
-0.020724341 0.004168857 0.1212445 0.061781388 -0.01039884 -0.017250828 0.035533834 0.05892056
-0.015528573 0.03091736 0.10421811 0.12741165 0.03789165 0.06502696 0.12579326 0.009253115
-0.02480354 0.03865805 -0.06866481 -0.058004823 0.025730606 0.042683695 0.11384278 -0.02150246
0.06518342 0.07129679 0.016818536 -0.03560287 -0.08779884 -0.038180564 -0.014820529 0.08238891

conv3.bias f4 [32]
00000000: 8d38 5b3d 237c 56bb 4a8e 8a3b a4c9 593d
00000010: 4bf0 863d 8000 8bbd 441f ad3c 43f9 e03c
00000020: 4ac5 ccbc ad76 323c 06f9 04bd 9840 953d
00000030: 8ba0 213d 426d 40bd e069 9ebd 08ba f3bc
00000040: c633 14bc ebe9 113d 1add 08bd 3454 49bd
00000050: 7e98 933c 05cf f73c 63e3 1c3d 3fde f03c
00000060: f753 d73c 3853 383d 493c 753c db9a 123d
00000070: 1bc9 743b 643c bebc ba72 053d 7a36 803b
0.053520728 -0.00327278 0.004228388 0.053170815 0.06588801 -0.06787205 0.021133073 0.027462607
-0.024996419 0.010892552 -0.03246405 0.07287711 0.039459746 -0.046979196 -0.07735038 -0.029751793
-0.009045547 0.035623472 -0.033413984 -0.049152568 0.01801705 0.030250082 0.03830279 0.02940285
0.026285155 0.04500124 0.014967986 0.035792213 0.0037351314 -0.023222156 0.032580115 0.003912744

bn3.weight f4 [32]
00000000: 1a50 723f fc06 723f 3e0d 863f d6d8 723f
00000010: d552 763f de73 783f baf5 7e3f 22e6 7d3f
00000020: fc18 963f 661a 633f 7bfc 823f 7e06 803f
00000030: ec6d 813f a432 8b3f 232c 773f 5245 8a3f
00000040: c40d 913f 6d04 713f 26a4 8e3f 35f4 833f
00000050: 9c02 7d3f 95ee 803f d5e1 773f 3ab4 843f
00000060: 6b9c 663f ec23 753f 5037 713f e350 753f
00000070: 2bb0 773f ae6f 793f 6062 8d3f 92e0 783f
0.94653475 0.9454191 1.0472791 0.94862115 0.9622014 0.970518 0.995937 0.9917928
1.1726375 0.88712156 1.0233301 1.0001981 1.011167 1.0874829 0.9655172 1.0802405
1.1332326 0.9414738 1.1143844 1.0308901 0.98832107 1.007281 0.9682897 1.0367501
0.90082425 0.9575794 0.94225025 0.9582655 0.96753186 0.97436035 1.1045647 0.9721767

bn3.bias f4 [32]
00000000: be06 4dbe 39d9 3b3e 9b3c 813c 441a 6bbd
00000010: a752 04bd 3780 d1bc 0de5 10be 3aea 64bd
00000020: 7e29 bf3c 9c0b c9bd d5c9 e3bb 76f5 bbbc
00000030: e66c c4bd bb05 713d fa14 0abe 645b ebbc
00000040: 142e 133d d3a5 2a3c 5be9 6fbd 2906 8cbd
00000050: 717b 3a3d 92e3 6c3d e1d7 67be 2392 d6bd
00000060: 882a 07bc 4835 44bd c43f ec3d 01ff 1c3d
00000070: 1844 d4bd d9b9 3f3d e5e0 0cbd 4666 aabd
-0.20022103 0.18344583 0.01577597 -0.057398096 -0.032305386 -0.025573833 -0.14149876 -0.05588744
0.023335215 -0.098166674 -0.0069515505 -0.022944193 -0.09591083 0.058843356 -0.13484564 -0.028730102
0.035932615 0.010415512 -0.058572154 -0.068371125 0.04552788 0.057834215 -0.22640945 -0.10477092
-0.008249886 -0.047902375 0.115356 0.03832913 -0.1036455 0.046808098 -0.034394164 -0.08320288

bn3.running_mean f4 [32]
00000000: 9d73 2e3e 5512 f93f d0c7 81be d8f6 c7bf
00000010: 7c75 53bf 83be 79bf 8222 73bf c524 093f
00000020: 8db4 72c0 cae8 9c3f 42d2 763f c5b5 7a3f
00000030: d4f5 a03f 25b3 923e cb8a 1cbf a0d3 37be
00000040: 7440 1a3f d877 8c3e ac53 f5bf 1b71 023f
00000050: 85ff f43e 9973 9abc fadd b3bf 322c 5a3e
00000060: 6fd5 87bf cf64 943f 3eef 26bf 3efb 2b3b
00000070: 40be ebbf 2c6c c83f 3822 4bc0 721b 96bd
0.1703629 1.945872 -0.25347757 -1.5622206 -0.8260114 -0.9755632 -0.9497453 0.5357173
-3.79227 1.2258542 0.9641458 0.9793361 1.2575021 0.286523 -0.6114928 -0.17951822
0.602546 0.27435184 -1.916616 0.50953835 0.47851196 -0.01885395 -1.4052117 0.21305922
-1.061201 1.1593264 -0.65208805 0.0026242281 -1.8417435 1.5658011 -3.1739635 -0.073294535

bn3.running_var f4 [32]
00000000: 57e1 2c40 5b5e 2e40 d300 7d40 84d9 9240
00000010: 234a 7640 7401 2b40 69bd 8540 d346 5440
00000020: b300 0141 4e2f 4f40 52f5 5c40 3aa9 7440
00000030: 022e 6a40 e409 9c40 4d6c b040 92b3 8a40
00000040: 9ac2 8c40 d612 3a40 2d02 3e40 7f7a 5540
00000050: 80f8 4440 f063 6640 76ae a240 22d9 6d40
00000060: c854 4340 2b3a 4840 ac0b 2340 0a31 5340
00000070: a474 9140 aa42 6440 b81f c540 9875 6640
2.7012537 2.724509 3.9531753 4.589052 3.848275 2.6719637 4.1793714 3.3168228
8.062671 3.2372622 3.4524732 3.8228288 3.659058 4.8762074 5.5132203 4.33442
4.398755 2.9073997 2.9688828 3.3356016 3.0776672 3.5998497 5.0837965 3.7163777
3.0520496 3.1285503 2.5475874 3.299868 4.5454884 3.5665689 6.160122 3.6009274

classifier.0.weight f4 [32, 288]
00000000: bc9b 4abd a698 36bd 0121 703d 9127 d73c
00000010: be9a 24bd 5e82 1ebd fc20 a73c b472 103d
00000020: d778 95bc 843c ee3b bbc9 c23c c06a 6ebc
00000030: 64fb 433d e12f 93bb b972 20bd a7a4 2d3d
00000040: 4a8c 653d 926b 173d 0187 43bd 8f0a 60bd
00000050: 250c 523d 7274 24bd 7ae9 2cbd 5d07 45bd
00000060: 882e a73c 02c3 6abd d50e 243c 0844 54bd
00000070: 684d 69bd 04a4 f2bb 7f7e 2d3d 5b41 0abd
00000080: cafc 293c 533d 903c e59f 2f3d 2069 a83c
00000090: ca01 2bbc 99ba 003b 7393 6d3c edc1 3e3d
000000a0: 2f38 5abc 8305 98bc 064d f43c 8503 c4bc
000000b0: 9a3f 49bd f743 c53c b929 c0bc c0b6 6ebd
000000c0: 61c7 1b3c 2b83 2abd a149 eabc ff52 833c
000000d0: e988 32bd bdf2 03bd 432f 5abc 1999 c0bc
000000e0: 7a35 3c3c 0809 583d bba5 51bd 7e5a 28bd
000000f0: 0b65 3c3d b619 b6bc 9daf c339 0a0a 323c
00000100: cc89 233d 3384 363d b844 623d f109 823b
00000110: 939d 5f3c fbca 833c 1ebd 4abc 08f9 d13c
00000120: a9da e23c 00b8 783c e141 17bd e049 6ebc
00000130: adf5 69bd 1dbf 113c b68c 153d 0bb1 9c3c
00000140: 4587 e63c bfcf 933c 0625 28ba 25c7 55bd
00000150: 6078 ac3c 393b e33c a9a4 1d3c 7b9c e73b
00000160: a450 edbc 50cb d43c d46e b43c 4667 bd3b
00000170: 9d55 4bbd 2598 66bd cd8d 1cba 0505 073c
00000180: 2d9f 1cbd ba10 02bd 929b 16bd b8fe 703c
00000190: 6050 153d ea25 cb3b 9291 273c 810e 1d3c
000001a0: d675 4cbd bb93 36bd 6e81 fb3c f62e 483d
000001b0: 663c 523c 9b1b 65bb f3d8 47bd 6b81 21bd
000001c0: de50 5c3d 6ea7 473d 9e65 b9b9 c49d 173d
000001d0: b101 21bd e4ed d23c 1542 71bd e456 f4bb
000001e0: add8 0fbd 6dbe 1a3b 5fbc 803c 2efc f13c
000001f0: ec41 b23c ada9 9cbc 81d1 943b a598 dbbc
00000200: 0394 23bd a56a c7bc 3b68 44bd 5d43 dbbc
00000210: 004a 3abd 2071 b63c fe13 543c ff19 513d
00000220: 142d 69bd 095e 13bd a647 afbc 6573 0abd
00000230: c554 e53c a2db 27bd e947 463c 7ec8 f5bc
00000240: 4621 543c d547 05bc 03b0 20bd 1740 d63a
00000250: dc2b 5f3d dae1 f1bc 9e9e 663d 7aad 5fbd
00000260: 2dd5 61bd 2bca 5abd efc7 243d 3fef 60bc
00000270: 31f1 1fbd 976d d6bc 0041 a93c a3d1 c33c
00000280: 5f5b 82bc 78cd 3ebd 5290 01bd 5978 2dbd
00000290: 067b bcbc eb75 88bc 699c 90bc 09f0 8eba
000002a0: be50 2abd 6c0f ab3c c309 5d3c abb2 e1bc
000002b0: a48b b5bc a6cd a6bb a052 a83c 77b3 20bd
000002c0: afa6 62bd 045b 61bd 7bae 63bc cf99 c1bc
000002d0: a2de 0c3d 367d 4fbd 7a4b 34bd c61f b4bc
000002e0: 9865 02bd ba73 403d e780 3f3d 373c 9a3c
000002f0: 89cc 433c 52db 5fbd 566f 1e3d ab23 24bd
00000300: 667e 413d 17df 5f3b f2a7 383c 8a41 2dbd
00000310: f3d8 a13c 83a0 4cbd 29c6 073b 7695 063d
00000320: c09a 453d 1348 c43c 2bd5 22bd 40cd b93c
00000330: 33ec 32bd 4655 27bc 7c28 2fbd 1e7a 493c
00000340: c299 02bd cbf2 2e3d e425 f43b 90cb 64bd
00000350: d881 edbc 7edd a63b 5ba8 ffbc e826 cc3c
00000360: 0ec3 afbb 23c8 e3bb 4a4b d13b 9836 773c
00000370: 041a 6fbd 87b0 f7bc 55c2 13bd 1c3c bc3c
00000380: e32e e23b 82cc 06bd 550d 11bd fc8a d13c
00000390: 438c 88bc 91c1 8abc f620 2ebd a579 da3c
000003a0: eb20 6cbc af1d c83c 53c1 52bd c19e 2d3d
000003b0: 28ef 59bd 2551 69bd fe7b cebc b203 313c
000003c0: ec81 b6bc 6fd1 56bc 7588 5dbd 8eeb 533c
000003d0: 8598 9c3b e743 6ebd ac9b b33c dddc 143c
000003e0: bfab 313d f67e 073d 0d19 11bd b522 efbc
000003f0: 58db 14bd 6224 f13c 21da 11bd 606c 1cbd
-0.049464926 -0.04457917 0.058625225 0.026263984 -0.040186636 -0.038698547 0.02040147 0.03526564
-0.018246097 0.0072703976 0.023777833 -0.014551818 0.047847167 -0.0044917916 -0.039171908 0.042393353
0.056041993 0.03696782 -0.04773617 -0.05469757 0.051281113 -0.040150113 -0.042214848 -0.048102725
0.02040793 -0.05731488 0.010013302 -0.051822692 -0.056958586 -0.007404806 0.042356964 -0.033753734
0.010375211 0.017607367 0.042877097 0.02055794 -0.010437438 0.001964247 0.014500487 0.04657166
-0.013319059 -0.018557316 0.029821884 -0.02392746 -0.04913292 0.02408026 -0.023457395 -0.058279753
0.009507985 -0.041628998 -0.028599562 0.016030787 -0.0435876 -0.032213915 -0.013316932 -0.023510503
0.011487359 0.052742988 -0.051183444 -0.041101925 0.0459948 -0.022229057 0.0003732414 0.010866651
0.039926335 0.04455967 0.055241317 0.0039684703 0.013648408 0.016088 -0.012374191 0.025631443
0.027692156 0.015180588 -0.03692806 -0.01454398 -0.05711906 0.008895663 0.036511146 0.01912739
0.028140673 0.018043397 -0.00064142083 -0.052191872 0.021053493 0.0277382 0.009621778 0.0070682145
-0.028969117 0.025975853 0.022025503 0.0057801334 -0.049642194 -0.05629744 -0.00059720577 0.008240943
-0.03823774 -0.031754233 -0.036769457 0.014709167 0.036453605 0.006199588 0.010227578 0.0095859775
-0.049917065 -0.04457448 0.030701365 0.04887291 0.012831783 -0.003495908 -0.048790883 -0.039430063
0.05378806 0.048743658 -0.0003536166 0.03701569 -0.039308254 0.0257482 -0.05890091 -0.007456647
-0.035118748 0.0023612038 0.015714822 0.029539194 0.02175995 -0.019123876 0.0045415764 -0.026806185
-0.039936077 -0.024342844 -0.047950964 -0.02676552 -0.04548073 0.02227074 0.01294422 0.051050182
-0.056927755 -0.03597835 -0.02139647 -0.033801455 0.027994523 -0.040980943 0.012102106 -0.030002829
0.012947386 -0.008134802 -0.039230358 0.0016346005 0.054485187 -0.02952664 0.056303613 -0.0546088
-0.05513494 -0.05341546 0.040229734 -0.013728916 -0.039048377 -0.026175303 0.020660877 0.023903674
-0.01591271 -0.04658267 -0.031631775 -0.0423511 -0.02300788 -0.01665779 -0.017652707 -0.0010905276
-0.041580908 0.020881377 0.013491097 -0.027551016 -0.022161312 -0.005090433 0.020547211 -0.03923365
-0.055334743 -0.05501844 -0.01389658 -0.023632912 0.034392007 -0.05065652 -0.044017293 -0.021987807
-0.03183517 0.046985365 0.04675379 0.01882754 0.01195062 -0.05465252 0.038680397 -0.040073078
0.047239684 0.0034160072 0.01127051 -0.04229883 0.01975677 -0.049957763 0.0020717478 0.03285738
0.048243284 0.023960149 -0.039754074 0.022680879 -0.04368229 -0.010213202 -0.04276322 0.012297181
-0.031884916 0.042712014 0.007450806 -0.055858195 -0.028992578 0.005092322 -0.031208208 0.024920896
-0.0053638285 -0.0069513484 0.006387149 0.0150887 -0.05837442 -0.030235542 -0.036074 0.022977881
0.006902562 -0.032909878 -0.035413105 0.025578968 -0.016668444 -0.016938003 -0.042511903 0.026669333
-0.014412145 0.024428217 -0.0514539 0.042387728 -0.053206593 -0.05696215 -0.025205608 0.010804104
-0.022278748 -0.013111456 -0.054085214 0.012934579 0.004778924 -0.058170225 0.021924816 0.009085861
0.04337668 0.033080064 -0.03542428 -0.029191354 -0.036341995 0.029436294 -0.035608415 -0.038189292

classifier.0.bias f4 [32]
00000000: aaf4 26bc 6378 5bbc d778 d0bc 3cfc 863d
00000010: 5d1a 84bd 045f 963d e84c 1d3d 68bf 033d
00000020: c2ec f13a 1c9d a83d 6992 a93d a423 363e
00000030: 0139 c23c 380e d13d 318f 5fbd c1da 573c
00000040: 9961 b93d dc0e 513c 5a48 bc39 3a89 373d
00000050: 60d2 953d e5be 863d 723a b43c dedc 94bd
00000060: 2c98 16bd ba7b 3d3d 8791 24bc 6f53 283d
00000070: bcd5 e3bc 7354 cf3d 5811 15bc bf7c fabc
-0.010190168 -0.013395402 -0.025448246 0.06591079 -0.06450341 0.073423415 0.03840342 0.03216496
0.00184574 0.08233091 0.08279879 0.17787033 0.023708822 0.1020779 -0.054579917 0.013174714
0.090518184 0.01275989 0.0003591206 0.044808604 0.073155165 0.06579379 0.022000525 -0.072686896
-0.036766216 0.046260573 -0.010044462 0.041095193 -0.027811877 0.10123529 -0.009098373 -0.030577062

classifier.2.weight f4 [32]
00000000: 8cf3 7f3f 89b6 bf3f 56ad b93f cfcf bd3f
00000010: 5595 783f e77f bc3f f74e bf3f ee48 cc3f
00000020: 2eef b73f 0bbf c63f b32e b63f 27e5 ba3f
00000030: fa2c b93f 61d5 bf3f d21c b93f 7096 ca3f
00000040: 3515 bd3f b79a be3f f1d0 7e3f 8c44 c13f
00000050: eea3 b93f 6f92 b83f 393b c33f 2294 c03f
00000060: f376 7f3f a2cb c13f d1b7 a53f 3cf1 c13f
00000070: be02 ba3f 7e76 bd3f 0bf5 c53f 9091 c03f
0.99981 1.497758 1.4506023 1.4829043 0.9710286 1.4726533 1.4945973 1.5959756
1.4369867 1.5527052 1.4233001 1.4601182 1.4466851 1.4986993 1.446192 1.582716
1.4772097 1.4890965 0.9953757 1.5099044 1.4503152 1.4419688 1.5252448 1.5045207
0.9979088 1.5140269 1.2946721 1.5151744 1.4532087 1.4801786 1.5465406 1.5044422

classifier.2.bias f4 [32]
00000000: c1d3 7bbb 35e5 1d3d efc7 b93d aaa0 60bd
00000010: 894e 4a3d 8f9c 8ebb 60c1 0c3e 913a 97bc
00000020: 41bb f23d 1c84 5bbc 55cf 993d 6214 f73d
00000030: 9cd6 403d 2ec5 d63d d02e 08be 2c78 93bd
00000040: 38aa c13b 5953 3d3c 8860 7f3d b432 a8bd
00000050: 1566 45bd 261a 8c3c 5e43 283e 55ee ad3c
00000060: 0340 fb3b 5a19 0abe a607 80bd 988a cf3d
00000070: cac5 563d 1be8 7f3d ede2 823d 22bd c4bc
-0.0038425776 0.038548667 0.090713374 -0.05484072 0.049391303 -0.0043521593 0.13745642 -0.018460544
0.11852122 -0.013398197 0.075102486 0.120644346 0.047079667 0.10486828 -0.13299108 -0.07200655
0.0059101842 0.011555516 0.06234792 -0.08212796 -0.048193056 0.017102312 0.16431949 0.02123181
0.007667543 -0.13486233 -0.06251459 0.101338565 0.05243472 0.062477212 0.06390939 -0.024015967

classifier.2.running_mean f4 [32]
00000000: 0000 0000 46a4 4c40 a688 1540 9195 0940
00000010: 0400 0000 f10f c43f 7212 8d40 eb0c 7c40
00000020: a0d4 2640 846b 0b40 b2ca 1240 c6ac 4040
00000030: 0deb 3040 9fa8 4440 e40a d13f 94ed 2d40
00000040: 55da d23f 59ef 4640 0400 0000 b07a ea3f
00000050: 7293 0040 d01e 2d40 2d81 5940 deb3 2640
00000060: 0400 0000 c9f8 6440 1458 af04 bb84 7940
00000070: 04a4 3e40 ddc7 2540 5b5c 0440 4e92 4440
0.0 3.1975265 2.3364654 2.1497538 6e-45 1.5317365 4.4085016 3.9382885
2.6067276 2.1784372 2.2936215 3.0105453 2.7643464 3.0727918 1.6331449 2.7176256
1.647288 3.1083586 6e-45 1.8318691 2.0089993 2.7050056 3.3985093 2.6047282
6e-45 3.5776846 4.122319e-36 3.8987262 2.9787607 2.5903237 2.068137 3.0714297

classifier.2.running_var f4 [32]
00000000: 5500 0000 75c3 5c40 934f 6140 fadb 6d40
00000010: 5500 0000 d42e 1340 7e2e 8e40 37cb 9040
00000020: 8204 4c40 63cf 2840 2138 0b40 8b04 5540
00000030: f608 4d40 941f 5a40 36c4 0240 8e97 7840
00000040: daa2 1c40 4597 8040 5500 0000 702f 6540
00000050: 072a 8f40 000c 1e40 81d7 8040 9f52 8d40
00000060: 5500 0000 65b5 1040 adf8 8304 3ca3 a140
00000070: 3489 bc40 82e7 7d40 aa79 6840 5558 8a40
1.19e-43 3.4494298 3.5204818 3.7165513 1.19e-43 2.2997332 4.4431753 4.5248065
3.1877751 2.6376579 2.1753008 3.3284023 3.203672 3.4081774 2.0432258 3.8842502
2.4474397 4.0184655 1.19e-43 3.5810204 4.4738803 2.4694824 4.0263066 4.4163356
1.19e-43 2.2610714 3.1026325e-36 5.051176 5.8917484 3.967255 3.6324258 4.3232827

classifier.3.weight f4 [10, 32]
00000000: 09d2 ae3d 74da cabe dfb9 c1be 9a9e 40be
00000010: 80e6 91bb f5a7 a83e 463f adbe 9282 333e
00000020: 237d f13e 3f06 553e bb90 a73e f8bc a4be
00000030: 9aef ae3d 30a3 8ebe ff2f b4ba 45c1 5d3e
00000040: 417b eebc 40ea b8be be30 edbd 7505 f73e
00000050: fa6f 0cbe b5ef adbe 7bfd c1bd cd22 d53e
00000060: b4cf 95bd 6783 9d3e f980 ffbd 7deb 93be
00000070: 7488 98be 1411 c0be d775 d3be 8312 c03e
00000080: d869 af3d 8c89 b2be cf89 ccbe b47d cb3e
00000090: 686a 75bd 4bbd 9c3e a2a4 e3be 5afb bdbe
000000a0: f90a 57be 13f0 8b3e 47c5 91be a0c4 b43e
000000b0: 5dea 75be b939 953e bbfe 16be 5e06 febe
000000c0: 1523 bebc 837f adbe d707 12bd 02b9 b73e
000000d0: 0391 bb3e 1bce 9c3e 0ed6 83be cec8 d7be
000000e0: 3d4b 103e fdcf 65be 0bdf a13e 036d a6be
000000f0: 78c7 d9be 3768 b73e f2a8 49be 5d98 a7be
00000100: 92f9 b73d 15be cb3e ed7c b2be 5bd8 b1be
00000110: f58d 483e 71ab 8ebe 7bb0 3abe 21e0 943e
00000120: adb2 cd3e d1db c73e a79b d9be 1bef 8a3e
00000130: 58d5 87be aaf6 903e 619f 373e 0303 c7be
00000140: c424 b9be 0e48 fdbd 5956 d13d 875d 9e3e
00000150: fc0e 4bbe eb81 48be db2e d43e 033a 923e
00000160: f253 dfbd 5e50 b33c 4c68 8dbe d291 a43e
00000170: 7ff9 77bc 7dd8 9d3e 7e5f 053e a675 99be
00000180: 71ca ea3d 142b 923e dae2 dc3d f704 56be
00000190: 7a53 40bd 5723 b7be 1742 b33e 21f6 943e
000001a0: 2f3c b23d 83d8 d0be 6753 8f3e 0395 d33e
000001b0: a809 d1be f05d 7e3e cc5e ccbe 4ac1 a6be
000001c0: d6a0 913e 9be6 cbbe de42 12be 6018 b1be
000001d0: ecce 31be 9dd1 713e 755c 85be 82b2 9fbe
000001e0: 64e7 0ebe 4099 263e 2941 abbe 09ab c53e
000001f0: 0eea ddbe 56ce cbbe a117 b2be c5a5 69be
00000200: e99a 163d e96a cfbe 573e eb3e 01f5 423e
00000210: aae5 c3bb c0f2 d9be d0cb b73e ba53 aabe
00000220: 0159 1e3e 1d74 bcbe e47b f73c 7853 3fbe
00000230: ea02 9cbc e391 babe ac6c 9c3e b0f7 203e
00000240: 7d4f debe fa6a c3be 096d b33d 5dc1 713c
00000250: fc31 b83e 91f9 693e b705 da3e 28ee e1bc
00000260: ff90 7cbd a81c 77be 1eb6 093e 9fa2 c3be
00000270: 3f28 e13e 7008 c93e 9308 21be b64b 8bbe
00000280: 90a0 7c3d f075 e63d 6945 e13e 04ab a6bd
00000290: 80e3 0a3e 8ba0 493e fead be3e 28dd a3be
000002a0: cd4b ecbe 9d7a ad3e de24 3c3e db47 cc3e
000002b0: b14d c2be 878c 6fbe 0249 85be 77cc dd3e
000002c0: 1aba 353e 496f a03e 7ec4 30bd 29b5 3abe
000002d0: c515 d8be e46e 8dbe 458d 5cbe 71d5 93be
000002e0: 571d e7bd 85f7 bcbd 36ba 673e 7a2f 97be
000002f0: 1fd1 73be efbb bdbe 8207 ae3e fd4e 81bc
00000300: d7a3 2e3d 2087 49bc 19bc 723d 464b b2be
00000310: 9775 1abe f0ea c6bd b6b5 dbbe 93e4 ee3e
00000320: 528c bdbe 66ff 933e 90e9 b6bd 1d5f c4be
00000330: 6acb d5be dea9 72be 0bfd a53e b2c0 693d
00000340: 32e4 a83e e046 b03e 1cbd 39be 3b84 cf3e
00000350: 54fc da3e a787 233e 0391 63be 5e09 bcbe
00000360: 86bd 1fbe 5110 fa3e df3f fa3d 585a afbe
00000370: e324 b33e aac9 99be 3043 9d3e f575 873e
00000380: b54e ff3c 80b4 5a3e db25 85be 3474 b03e
00000390: 703c 80bd 9112 2dbd 490e c6be 99be 88bd
000003a0: 14e7 d2be 3961 e0be 1947 9abe 6bdc 883e
000003b0: d30e c03e f331 e2be b43f a03e 3e39 283c
000003c0: da58 91be b993 bfbe b7f8 97bd ee8b f0be
000003d0: b3a4 78be b07a 83be 0043 d1be f1ea a53e
000003e0: 8736 00be da95 3abe 693c a23e 98b9 be3e
000003f0: e1ba b5be c097 b13e 8f19 62be fb20 9cbe
0.08536155 -0.39619792 -0.3783712 -0.18810502 -0.0044525266 0.3294064 -0.33837336 0.17530277
0.47165784 0.20803164 0.32727608 -0.32175422 0.08541794 -0.27858877 -0.0013747214 0.21655758
-0.029111506 -0.3611622 -0.115815625 0.4824635 -0.1371459 -0.33971944 -0.09472176 0.41628113
-0.07315007 0.30764315 -0.124757715 -0.288906 -0.29791605 -0.3751303 -0.41300842 0.37514123
0.0856511 -0.34870565 -0.3994889 0.3974434 -0.05991593 0.3061317 -0.44461542 -0.3710583
-0.2100028 0.273316 -0.28470823 0.35306263 -0.24015184 0.291456 -0.1474561 -0.49614233
-0.023210088 -0.33886346 -0.035652008 0.35883337 0.36634073 0.30625996 -0.25749248 -0.4214539
0.14091201 -0.22442622 0.3161548 -0.32505044 -0.42534995 0.35821697 -0.19693354 -0.3273343
0.08983149 0.3979346 -0.34860936 -0.3473538 0.19585402 -0.27865174 -0.18231384 0.29077247
0.4017538 0.39034894 -0.42501566 0.27135548 -0.26529956 0.2831319 0.17931892 -0.38869485
-0.36160862 -0.12367259 0.10221548 0.3093073 -0.19829935 -0.1958081 0.41441998 0.28559884
-0.10904683 0.021888908 -0.27618635 0.32142502 -0.015135168 0.3082923 0.13024709 -0.2997257
0.11464394 0.2854849 0.10785456 -0.20900331 -0.04695461 -0.3576915 0.3501136 0.2909403
0.08702885 -0.40790185 0.27993318 0.41324624 -0.4082768 0.24840522 -0.39916074 -0.32569343
0.2844302 -0.39824376 -0.1428332 -0.3458891 -0.1736409 0.23615117 -0.26047102 -0.31190878
-0.13955456 0.16269398 -0.3344815 0.38607052 -0.43342632 -0.3980586 -0.34783652 -0.22817142
0.036768828 -0.40511253 0.45946 0.19038774 -0.005978306 -0.42568016 0.35897684 -0.33267003
0.1546364 -0.36807337 0.030210443 -0.18684185 -0.019044358 -0.36439428 0.3055166 0.15719485
-0.4342002 -0.38167554 0.08761031 0.014755574 0.35975635 0.22849108 0.42582485 -0.027579382
-0.061661717 -0.24132025 0.13448378 -0.38210008 0.43976018 0.3926425 -0.15725927 -0.272062
0.06167656 0.112529635 0.43998268 -0.081380874 0.13563347 0.19690149 0.3724212 -0.32004666
-0.4615158 0.3388261 0.18373439 0.3989857 -0.379499 -0.2339345 -0.26032263 0.43320057
0.17746773 0.31334904 -0.04315614 -0.1823317 -0.4220411 -0.27623665 -0.21538265 -0.2887378
-0.11284893 -0.09226898 0.22629628 -0.2952841 -0.23810242 -0.37057444 0.33990103 -0.015784735
0.04263672 -0.012300283 0.059261415 -0.34823054 -0.1508392 -0.097127795 -0.42912072 0.46658763
-0.37021118 0.2890579 -0.08931267 -0.38353816 -0.41756755 -0.23697612 0.3241962 0.057068534
0.329866 0.34429073 -0.18138546 0.4053057 0.42770636 0.15969716 -0.22223286 -0.36725897
-0.15599641 0.48840573 0.12219214 -0.34248614 0.3498908 -0.3003667 0.30715322 0.26457182
0.03116546 0.21357918 -0.26005444 0.34463656 -0.062615275 -0.042254034 -0.38682774 -0.066769786
-0.41191924 -0.43824175 -0.30132368 0.26730666 0.3751131 -0.44178733 0.31298602 0.010267554
-0.283881 -0.3741739 -0.074204855 -0.46981758 -0.24281578 -0.2567954 -0.4087143 0.3240581
-0.125208 -0.18221226 0.31686714 0.37250972 -0.3549414 0.3468609 -0.22080062 -0.30493912

classifier.3.bias f4 [10]
00000000: b81f fd3d ea33 e03c edbb 77bd 5974 3dbc
00000010: eb9d fdbd 5652 9f3c 429d 03be 6315 673d
00000020: e307 483e 8ae5 c23d
0.123595655 0.027368505 -0.060481954 -0.011563384 -0.12383636 0.01944844 -0.12852958 0.05641688
0.19534259 0.09516437
