Session5/mnist_model_20241214_230929.pth (torch, 106276 bytes, 26 tensors)

conv1.weight f4 [16, 1, 3, 3]
00000000: 4eba 923e 91b8 63bd 28d3 213d 3c79 223e
00000010: ab28 86be 241e 3abe 9847 0b3e cb97 413e
00000020: 951f 84be a95e aebd 42dc 22be 139a 78be
00000030: 449e 98bd 7ce6 dbbc 0fd7 c83d 0a4b 0d3e
00000040: 16ec 1dbe 44a4 9a3e c47e 0f3e 4c4f 38be
00000050: 823b 5abe e0f2 2eba af7e ce3c 4960 da3c
00000060: 62ef c3bd b2e1 873e b7da b7be d648 85be
00000070: 5740 03be f1e1 b5be 149d 823e f8dc 443e
00000080: 9e73 6dbe 23eb b83d 21aa 383d df4b a53d
00000090: 812d 9abe f74d a73e f5dc 62bd de74 b23e
000000a0: abb6 32be 94c8 623d 50e6 6a3e f8c3 993d
000000b0: 8ad8 8fbe 2c74 b03d d61c 443d c7c4 a5be
000000c0: cab7 883e 3e84 36be 3212 0dbe 9cb2 5a3e
000000d0: eafc 5a3d 0cc5 9bbd 8ab2 883e 9808 5b3e
000000e0: 11a7 7e3c 5fa3 5bbe 6261 113d 7c31 843e
000000f0: d129 a7be 79c6 16be 5db6 03be 7a4c 433d
00000100: cbbf 543e 7b40 8abe 50f7 f53d f4c1 d93d
00000110: b82c fdbd babc 92be 5382 aa3e 1c69 613d
00000120: 5b14 933e d287 713d 11d4 85be f6b1 7fbe
00000130: 5788 d9bd e985 1abc 1ead 53bc 02e1 3ebe
00000140: 7889 3d3e 2bcd 7dbe 0f16 99bd 0d97 a7be
00000150: 911c ab3d ce20 2dbe da94 483d 199e 253e
00000160: 9496 853e 4593 99bd 85d7 31bd 6e1d 20be
00000170: 92f1 8fbe f09a 1a3e 94e2 373d 25e9 a83d
00000180: d869 2d3e 4af5 22be 8887 91be 45c6 04be
00000190: b8de c0be f86b 7a3d 928c d63c ed50 a13d
000001a0: cd25 d0be cd95 8dbd 2d7d 9e3e 393b 6abc
000001b0: 18ed 82bc 66a9 90bd f896 743e d451 bebe
000001c0: 4521 75be 332e 3cbe 58a2 6f3e 8ca7 c0bd
000001d0: 7b94 00be c55a 543d a486 8bbe bcb2 5dbe
000001e0: 3aec 8ebe e214 a53c 8b43 b93d d448 b13e
000001f0: 1a71 443e 5072 d53d dad8 8c3e 4fb1 973e
00000200: 7f02 803e 85ff 16be 284c 39bd 976c 9fbe
00000210: 4c5b a2be 58ee 6dbe 6597 5bbe 902b a3be
00000220: c999 10bd bd8c bf3c ccbe 91bd ef28 1c3d
00000230: 24ad 3b3d f616 73be d7e5 e43d 1e1a 833e
0.28657764 -0.055595938 0.039508015 0.1586656 -0.26202902 -0.1817556 0.1360153 0.1890556
-0.25805345 -0.08514149 -0.15904334 -0.24277525 -0.07452062 -0.026843302 0.09806644 0.13798156
-0.15422091 0.3020345 0.14013201 -0.17999 -0.21311763 -0.00066737644 0.025206892 0.02665724
-0.09567143 0.2653938 -0.35909054 -0.26032132 -0.12817512 -0.35523942 0.25510466 0.19224918
-0.23188636 0.09029224 0.045084123 0.08071112 -0.30112842 0.3267667 -0.055386502 0.34854788
-0.17452495 0.055367067 0.2293942 0.07508081 -0.28094894 0.08615908 0.047879063 -0.32376692
0.2670272 -0.17823884 -0.13776472 0.21357197 0.053463854 -0.07605943 0.26698714 0.21389997
0.015542761 -0.2144904 0.035493262 0.25819004 -0.3264909 -0.14724149 -0.12862535 0.047680356
0.20776288 -0.2700232 0.12010062 0.10632697 -0.12362045 -0.28659612 0.33302554 0.05503188
0.28726467 0.05896742 -0.26138356 -0.2497023 -0.10621708 -0.009431341 -0.012919692 -0.18640521
0.18509471 -0.24785297 -0.074749105 -0.3273243 0.08355058 -0.16907045 0.04897008 0.1617359
0.26091444 -0.074987926 -0.043418426 -0.15636227 -0.2811399 0.15098166 0.044893816 0.08247594
0.16934907 -0.15913883 -0.28423715 -0.12966259 -0.3766992 0.061138123 0.026190076 0.078767635
-0.4065384 -0.06913338 0.30954877 -0.014296346 -0.015982196 -0.0706356 0.23885715 -0.37171805
-0.23938473 -0.18376999 0.23401773 -0.09406957 -0.12556641 0.051844377 -0.2725116 -0.21650213
-0.27914602 0.02015156 0.09046086 0.34625876 0.1918377 0.10422194 0.27509195 0.29627463
0.25001904 -0.1474591 -0.045238644 -0.31137535 -0.3171028 -0.23235452 -0.21444471 -0.31869173
-0.03530291 0.023382539 -0.0711647 0.038124975 0.045819417 -0.23739228 0.11176651 0.25605863

conv1.bias f4 [16]
00000000: b88d ff3d 6cc8 91bd 9d80 36be 28c4 9abe
00000010: b8d2 0b3e 14ca df3d fd06 533e 3fc6 38bb
00000020: bb40 2cbe 8459 9dbd 94d7 8e3e 7b2c a73e
00000030: 491d 46be 5b5c 5fbe a4b0 1cbe 462a 153d
0.124782026 -0.071183056 -0.178225 -0.3022778 0.13654602 0.10927215 0.20608135 -0.0028194336
-0.16821568 -0.076830894 0.27898848 0.32651123 -0.19347109 -0.21812575 -0.15301758 0.03641727

bn1.weight f4 [16]
00000000: 244f 633f 30cc 773f 8fc7 673f c946 823f
00000010: b67a 523f 191b 813f 4142 883f af95 633f
00000020: bb73 953f ecca 803f b663 813f 9fb7 923f
00000030: d41b 993f d59a 853f ffd7 913f 11f0 803f
0.88792634 0.9679594 0.9053888 1.0177852 0.8221849 1.0086395 1.0645219 0.88900274
1.1675943 1.0061927 1.0108554 1.1462287 1.1961617 1.0437876 1.1394042 1.0073262

bn1.bias f4 [16]
00000000: 8eb7 ecbd b422 51bd 2da4 0ebd 94e9 67bc
00000010: 2a35 91bd d2fb a5bd 90f9 86bd 2e56 1bbe
00000020: 16b9 5a3d e128 42bb 228a a1bd 100d 373d
00000030: d756 083d c799 d2bc 5f48 673d 47ed 46bd
-0.11558448 -0.051058486 -0.03482454 -0.01415481 -0.07090218 -0.081046715 -0.06590569 -0.15169594
0.053399168 -0.0029626417 -0.07887675 0.04469019 0.033285942 -0.025708092 0.056465503 -0.04856613

bn1.running_mean f4 [16]
00000000: 31f4 063e 9fe1 c9bd 352f 6cbe e92d b0be
00000010: 7f75 2a3e 97b0 d23d cc56 4f3e 1236 b93c
00000020: d2b5 54be 7250 fabd fc47 5c3e 9b71 833e
00000030: 5a2d 8ebe 5251 5abe c603 5abe 833e 393c
0.13179089 -0.09857487 -0.23064883 -0.34410027 0.16646384 0.10287588 0.20247954 0.02260879
-0.20772484 -0.12222375 0.21511835 0.25672612 -0.27768975 -0.21320084 -0.21290502 0.011306408

bn1.running_var f4 [16]
00000000: 4cf4 983c 7e37 833c 0af1 703c 8636 c53c
00000010: 6281 863c 7fcc b23c c56b b53c dc19 153c
00000020: 7a2c 743c 092d c23c 6fdf c23c c33e e13c
00000030: a9c7 123d 95f2 b03c 0b7d 723d 887b b93c
0.018671177 0.016017672 0.014705906 0.02407385 0.016419116 0.021826027 0.022146115 0.009100404
0.014903182 0.023703115 0.023788182 0.027495747 0.035834942 0.021600047 0.05920128 0.022641912

conv2.weight f4 [32, 16, 3, 3]
00000000: f935 b0bd 00bd 593d 6cb8 9bbd 50f8 e3bb
00000010: d9ee 433d c31f 9cbd c968 83bd 7fa5 9abd
00000020: 0173 5d3d 341d 443d d0d5 853b 38e6 5cbd
00000030: 499e 09bd a3ad b6bd 4358 513d a13c 82bd
00000040: 84a1 123a 66ab 813d bc16 48bd 312b b4bd
00000050: dc40 66bd ee88 bbbd c381 8f3d 8ff3 90bd
00000060: 9421 353d 23a8 dabd e1ca 9aba 37a5 8abd
00000070: edb2 9dbd 5848 d63d 141a 863c 0f7e 303c
00000080: feb6 553c e5f3 ab3d fdbd b03c 7541 a63d
00000090: c42d 893d 7095 773c 6e03 9fbd 5441 383d
000000a0: b576 273d 3523 2cbd 131e 86bc 0127 f83c
000000b0: 1961 493d ecf1 e23c 9c7c 5fbc 5946 7cbd
000000c0: 6646 983d 63d6 4cbd fd2a 1cbe 1012 9bbd
000000d0: 38b8 15bd 43ca 6dbd 9626 a8bd 560b 4d3d
000000e0: 624f dbbb 682c 903d 7e28 933d ddb2 063e
000000f0: d9b8 0c3e d65e 753e 2dd7 093e 69b2 6cbc
00000100: ce99 2e3d ae86 9f3d 2b8d 303d 4e86 b03c
00000110: 2254 d23c b9d2 3e3c e3da 8b3d 3334 3ebd
00000120: 7651 37bc 3bd7 c73c 22f3 8dbc ff2c a8bd
00000130: 07cd a2bd be7d c93c f926 a63c b780 943d
00000140: 561f d53d f663 c1bc b302 21bd bef0 95bb
00000150: fb75 b4bc d06c 35bc 82f2 0e3e 14c9 bb3c
00000160: 048c 65bd 05f2 923d 9822 8fbd ac9b d8bd
00000170: a856 3bbd 17f1 b53d 2fd4 373c 56d1 893b
00000180: 6c2e 9f3d 7bef b83c 6486 1a3b f959 c43c
00000190: 42bf 1dbe 38a2 75bd 8de0 643a f0c9 113e
000001a0: 8b76 ea3c ffd9 fcba 5b36 2abd 1dae f0bd
000001b0: aed4 aabd 3195 0abd aa44 a4bd 6886 923b
000001c0: 96a7 473d 8c5a bd3d 86d0 1c3e 2c53 f1ba
000001d0: 8fab eabc bc3f 9e3c afcc b5bc cf20 d33d
000001e0: 5eb1 673d d185 f33d 1a23 6f3d e0ac b1bc
000001f0: 7b1c 24bc 6bc1 543d cb1c a3bd d51f 853b
00000200: 757b abbd a22f 75bb e0aa 17bc fe5e 97bb
00000210: 3d7c b53d b7a3 143e fb9d 5f3d ce88 8a3b
00000220: 362f 37bd 3e86 293d 095a 4fbd 5e58 b43c
00000230: 6bd8 51bd 216d fbbd 76a5 8fbd d86e 86bd
00000240: 592b 2dbd 8a16 183d c66d e53d be22 c73d
00000250: 6c90 8dbb bd5f d43d b589 253c ad9e 703d
00000260: f3aa 3cbc 8bd7 803d 4eab b23c ebeb 193d
00000270: 7bfe 403d cf06 233d d111 ecbd 0d04 13bd
00000280: 4133 2cbd d32e 92bd 16bc 863d 6d3d b93d
00000290: 2a4b 173d 7881 553c e477 623d 8ab7 a03c
000002a0: b926 9dbd c243 e1bb e910 d7bc 10e8 1d3d
000002b0: edc9 9139 f810 d639 0ef0 d03c 8967 fd3c
000002c0: 3a13 283d 921f 543d 5f01 18bd b55c 9c3d
000002d0: e454 a13d 859a 3f3d 5a08 64bc 4e90 8cbc
000002e0: f997 8bbc 2e27 013d 78e0 41bd d66c 22bd
000002f0: 0d64 893d a2c5 c0bd 9dee 37bd 203d 2a3c
00000300: 1c32 29bc b822 37bc 05e1 c43d 6a09 c6bc
00000310: 527a 60bd 09cc 0b3e 442c 3c3d 7199 953d
00000320: 3c9a 98bb e530 143d b4fb b5bb 73c6 bcbd
00000330: 9616 ce3b 6786 48bd 25f1 62bd 3017 16bd
00000340: a8d3 5d3b 60d6 1cbd 6e7e 593d cf9d 783d
00000350: d0a5 583d ff67 c33d 3ca1 32bd 503d 17bd
00000360: 3747 eabc e807 d9bd 5ecd 03be 7c42 81bd
00000370: 86f2 51bd 308c 97bd cce4 febd eb94 e1bd
00000380: fda8 793b 1050 343c dde5 c63d 514a 71bd
00000390: 5e9b dd3c 8b6b 2a3d ae60 4c3d b0b1 94bd
000003a0: 3478 81bc f4dc 56bb ef47 6a3d 907b 1fbd
000003b0: 1ed1 6a3d a877 c03d 537e 223d 22c6 133d
000003c0: a974 dd3d 9e3a 233d 5453 213c bef1 f5bc
000003d0: a98e c7ba b201 563d fff0 7dbd 8610 9f3c
000003e0: 9339 d43c b661 b4bd 0e06 d3bd 7df8 be3c
000003f0: ae43 113c 5867 c2bd a954 36bd 9067 23bd
-0.086040445 0.05315876 -0.07603535 -0.0069570914 0.047835205 -0.076232456 -0.064164706 -0.07551097
0.054064754 0.047879413 0.0040843263 -0.05393049 -0.033598218 -0.08919837 0.051109564 -0.0635922
0.0005593526 0.0633152 -0.048849806 -0.087973006 -0.0562142 -0.09156977 0.07007172 -0.07077705
0.044221476 -0.10676601 -0.001180973 -0.067697935 -0.07700143 0.10463017 0.016369857 0.010772242
0.013044117 0.083961286 0.021574968 0.08117954 0.06698182 0.015111312 -0.07764326 0.044984177
0.040884692 -0.042025764 -0.016371762 0.030292036 0.049164865 0.027703248 -0.013640549 -0.061590526
0.074353024 -0.050009143 -0.15250774 -0.075718045 -0.036552638 -0.05805422 -0.08210485 0.05005964
-0.006692813 0.0703972 0.07185458 0.13154168 0.13742389 0.23961958 0.1346099 -0.014446833
0.04262715 0.0778936 0.04310338 0.021548416 0.025674883 0.01164692 0.06828859 -0.0464365
-0.011188855 0.024394622 -0.017327849 -0.08211707 -0.07949262 0.024596091 0.020282255 0.07251113
0.104063675 -0.023607235 -0.039309215 -0.004575818 -0.022028914 -0.011073306 0.13959697 0.02292303
-0.056041732 0.07175068 -0.0698902 -0.10576567 -0.04573694 0.08883875 0.011220022 0.004205863
0.07772526 0.02257513 0.0023578638 0.023968684 -0.1540499 -0.059969157 0.00087309704 0.1423719
0.028620979 -0.0019291042 -0.041555744 -0.117519595 -0.08341347 -0.033833686 -0.08020909 0.004471589
0.048743807 0.09245786 0.1531392 -0.0018411628 -0.028646259 0.0193175 -0.022192327 0.10308992
0.056565635 0.11890758 0.058383085 -0.021688879 -0.010016556 0.05194227 -0.07964476 0.0040626326
-0.08373157 -0.0037412425 -0.009257048 -0.0046194782 0.08861587 0.14515577 0.05459402 0.004227734
-0.04472276 0.04138779 -0.050622974 0.022014793 -0.051231783 -0.12276674 -0.07013981 -0.065641105
-0.042277668 0.03713087 0.11202578 0.097234234 -0.004320195 0.10369823 0.010103633 0.058745075
-0.011515367 0.062911116 0.0218102 0.037578505 0.04711769 0.039801415 -0.11526836 -0.035892535
-0.042041067 -0.07137837 0.06578843 0.09044919 0.036936916 0.013031356 0.055290118 0.019618768
-0.076734014 -0.0068745324 -0.02625318 0.03855139 0.00027807002 0.00040829903 0.025505092 0.030933158
0.04103396 0.05178792 -0.037110683 0.0763487 0.0787752 0.04677822 -0.013918007 -0.017158654
-0.01704024 0.031531505 -0.04733321 -0.039654575 0.06708536 -0.094126955 -0.044905294 0.01039055
-0.010326888 -0.011177711 0.096132316 -0.02417441 -0.054804154 0.13652052 0.045940652 0.07304657
-0.004657058 0.036179442 -0.005553687 -0.09217539 0.0062893135 -0.0489563 -0.055405755 -0.036643207
0.003384808 -0.03829038 0.05309909 0.060697373 0.052892506 0.0954132 -0.043610796 -0.036923707
-0.028598411 -0.10597211 -0.1287131 -0.06311509 -0.05125668 -0.073997855 -0.12445983 -0.11014732
0.003809511 0.0110054165 0.09711812 -0.058908764 0.027051624 0.041606467 0.04989689 -0.07260454
-0.015804388 -0.0032785507 0.057197507 -0.038936198 0.057328336 0.093978226 0.039671253 0.036077626
0.10813267 0.039850824 0.009846527 -0.030022498 -0.0015225011 0.05224771 -0.06199741 0.019417059
0.02590636 -0.088076994 -0.10303889 0.023311848 0.008866234 -0.094923675 -0.044514332 -0.039893687

conv2.bias f4 [32]
00000000: 7c5c 74be e202 973c d375 623c 2569 9dbd
00000010: 6579 223e 31f7 ffbd 0cdb a1bb 8826 843d
00000020: cd80 903d d400 a1bd 111a 37bd c27c 683d
00000030: 9f9f 623d 09a0 003d 322b 5ebc 9ad7 04bd
00000040: e523 063e f0ca cd3c 878b 9b3d e92c d2bb
00000050: f8c8 003d 0472 4b3d e8f6 493d 02f4 7abd
00000060: c213 bc3d c0bd 2f3c 11dd 86bc 9276 99bd
00000070: 7ad3 d2bd 0b71 59bc f553 53bd 1c0a abbd
-0.23863405 0.018433992 0.013822037 -0.0768607 0.15866621 -0.1249832 -0.0049394425 0.06452662
0.07055817 -0.07861486 -0.044702593 0.056759603 0.055328008 0.03140262 -0.013560103 -0.032432176
0.1309963 0.025121182 0.07594972 -0.006414045 0.03144166 0.04966928 0.049307734 -0.06126786
0.09183456 0.010726392 -0.016462835 -0.074933186 -0.10294242 -0.01327158 -0.05159374 -0.083515376

bn2.weight f4 [32]
00000000: b1b5 883f f632 6d3f 0b87 903f 3709 683f
00000010: 6c4c 833f 2449 6b3f 7050 723f 583d 6d3f
00000020: d6e3 823f 2802 7d3f 8f3c 7e3f 2019 8f3f
00000030: 1fa0 943f 4d0b 8a3f 0641 813f 12bc 643f
00000040: db27 6f3f d48a 673f b47a 833f 8ce5 853f
00000050: 1678 873f 1a33 5d3f f00c 833f d385 7a3f
00000060: 2c1d 793f 9f9d 703f bf22 793f f527 913f
00000070: 673d 763f aab3 7e3f 8f1c 8d3f 7fb4 873f
1.0680448 0.92655885 1.1291212 0.9063906 1.0257697 0.9190848 0.9465399 0.9267173
1.022578 0.98831415 0.99311155 1.1179543 1.1611365 1.0784699 1.0097969 0.8934947
0.9342019 0.9044621 1.0271821 1.0460677 1.0583522 0.864061 1.0238323 0.9786045
0.9731014 0.9399051 0.97318643 1.1340319 0.9618744 0.99492896 1.102434 1.0601958

bn2.bias f4 [32]
00000000: 6678 753d 6b87 2bbd 6cb8 963c 6868 eebd
00000010: 4655 61bd 0517 22be f2ab 14bd 5eb3 6cbd
00000020: d8fc 03be c2c2 f4bc d166 ecbc 815a 6dbd
00000030: ba45 803d 0c59 e1bc cb0f babc 82af debd
00000040: 8abe 37bd 240b 253d 2c85 7bbd 939a 7bbd
00000050: 72ad a0bd 45be 15be 17f4 bbbc fd27 ef3c
00000060: b9d5 a1bd 7751 0dbe b1d1 53be f8ca 88bc
00000070: fead 91bd 5f93 d8bd 288a b83b e625 c33c
0.059929274 -0.04187719 0.018398486 -0.11641008 -0.055012964 -0.15829094 -0.036296792 -0.057788245
-0.12889421 -0.029878024 -0.02885762 -0.05794764 0.06263299 -0.027508281 -0.022712609 -0.10873319
-0.044859447 0.040293828 -0.0614063 -0.06142671 -0.07845582 -0.14623363 -0.02294354 0.029193873
-0.079020925 -0.13800608 -0.2068546 -0.016698346 -0.071132645 -0.10574984 0.005631704 0.023821782

bn2.running_mean f4 [32]
00000000: fd78 f83c ee85 5abe 1550 f33e 8ae8 02bf
00000010: 364b 8bbe 8840 64bf 8824 15be b00b b23e
00000020: 8c46 2cbf 8693 383e 942f ecbe 12c9 2ebe
00000030: 89ba 36bf 8378 19be 8aea f4be 2962 f0be
00000040: fc4a a43e 13c6 08be bd70 e8be a240 91be
00000050: 04ad e73e ddd0 d2be 7b2d 8cbf 1d0b 5ebf
00000060: 13dc 2ebc 82d0 4b3f f450 883e 7fd3 33bf
00000070: c2f0 b6bf 7c63 cebe b89b 933e d5f1 153f
0.03033113 -0.21340153 0.47522035 -0.51136076 -0.2720582 -0.89160967 -0.14564717 0.34774542
-0.67295146 0.18025026 -0.4613005 -0.1706889 -0.7137838 -0.14987378 -0.4783519 -0.4694989
0.3208846 -0.1335681 -0.45398512 -0.28369623 0.45249188 -0.41174975 -1.095138 -0.8673571
-0.010672587 0.7961503 0.26624262 -0.7024459 -1.4292223 -0.40310276 0.2882974 0.5857213

bn2.running_var f4 [32]
00000000: fd23 5c3f d48b 233f d6b4 c03f a1ea 8c3f
00000010: c70b 1a3f 3b69 5c3f 07c2 393f 9895 053f
00000020: 209e 6c3f b571 8b3f 3bfb 623f ecc4 3a3f
00000030: b1d7 af3f 1259 363f 274a 983f f990 8a3f
00000040: 0e56 333f fea7 fc3e f11f 283f 479b 9c3f
00000050: 85cd 1b3f 0cc0 3a3f 33b4 4a3f 0444 943f
00000060: ba03 293f 3b43 c33f 578e 5a3f 1443 623f
00000070: 98be 653f cca0 073f 3847 723f 0275 6f3f
0.85992414 0.63885236 1.5055187 1.1009103 0.6017422 0.8609807 0.7256169 0.52181387
0.9242878 1.0894076 0.886646 0.7295673 1.3737699 0.7122966 1.189763 1.0825492
0.70053184 0.49346918 0.6567374 1.2234887 0.6086047 0.7294929 0.7918121 1.1583257
0.6602131 1.5254892 0.85373443 0.88383603 0.8974395 0.5297973 0.9463992 0.93537915

conv3.weight f4 [32, 32, 3, 3]
00000000: 69db 163d c3dc d23c ea13 8dbd 414e 3d3d
00000010: 7a20 b5bc 2061 25be d01e d2bc ad6b 9fbd
00000020: 9ce4 8b3d 91dc 453d 1f59 2ebd acdc 903d
00000030: 5647 7c3d 5021 09bb 20ce afbc 3864 643d
00000040: 2113 333c 115c 433d 97f3 c5bc 416d c03d
00000050: b3e1 cb3d c431 3cbe fbf0 23bc 8f01 cbbc
00000060: 5417 bf3c 200e 4ebd 7b88 18bd 6a9e 0a3c
00000070: 9e99 2abd 0478 4abd 1642 cbbc 74c5 c0bc
00000080: 6c15 d73c b817 bfbd 6302 153c 73cc b5bd
00000090: cc14 943d 19a3 c23d f193 28bd 8210 f93d
000000a0: 495c 2fbd ce7d e9bc 23be 1f3c c803 1fbc
000000b0: fc88 c13d b3e0 223d ca97 663d d72b 41b9
000000c0: 832b 89bb 451e 83bc 0851 84bd 0482 5f3b
000000d0: 36b2 a63d 07cd 7e3d 7f27 9c3d e78a e3bc
000000e0: 8148 a63d 15f1 563d 4b03 733d 983e 7fbd
000000f0: 893e fd3d 9e5c 03be 9572 2cbc d3f3 e03c
00000100: c126 c93d 2c6b 653d fa91 c4bc 5cb6 71bd
00000110: c9ea 91bd f42d 293c 62f1 dc3c c93c b4bd
00000120: 6d14 95bd 9729 1bbd f3e4 acbd f67c e63c
00000130: 2adb b5bc 7be0 10be 702c cebd 1811 3bbc
00000140: 6f2a 533c 906b ea3c 04a0 46bd 9fab a1bb
00000150: e3f7 5e3d b345 44bd 8e86 7abd a071 053c
00000160: 0564 b9bc b9fe 133d 3338 0d3d 551c 5abd
00000170: 3942 80bd 4251 db3b 3dc1 0e3d ebe0 6d3d
00000180: f550 4c3d d1f1 223d 61ce 1cbd d1ff 49bd
00000190: d890 03be b78a 703d 5031 4bbd b0e8 923d
000001a0: d363 1d3d 6ac0 d53d 7da2 873d d46f c3bc
000001b0: b382 463c 3696 fbbb 69f4 1b3d 9e0b 0ebd
000001c0: 4b8f 2ebd ba43 14be 24ac 98bc dc0a a33b
000001d0: 395a 83bc c0e3 97bc f15a 1e3d 82ef f43a
000001e0: 5994 babd c971 90bd d2aa 3abd b079 46bd
000001f0: 0361 c8bc 28b4 583d 957c c53c 1aeb a63c
00000200: 919a 3cbd 0575 683c 8c1a a83d bdac 533d
00000210: eeea 833b 6d7a e03c e4f4 2a3d 8431 9a3c
00000220: a7a5 a53d 7453 a43c 96c1 1f3d 8af0 a8bd
00000230: 5015 c4bc e5b1 d63c 439b 20bd 919c 8fbd
00000240: 9510 183c ec71 3f3c 7c02 d93c 262c cc3d
00000250: 3685 21bd ae47 843c ff0a b03c 5a2e 3ebc
00000260: 4574 753c 7ae5 8a3c c901 803d 3ba5 813d
00000270: fb5e 553d b3d2 933d 6184 f73d 725e d73c
00000280: 787f 08bd 55fb 27bd 381c 5dbd 7ed6 60bb
00000290: 9f3b 2a3d 3f10 0b3d 5120 0a3d b644 a33d
000002a0: af3b 3dbd d702 c2bc bda6 963d 3fce 4cbd
000002b0: cd4a 37bd 6a50 c1bd 1cc2 e03d da9e 113e
000002c0: 72a3 753c 753e 8d3d 387a 05bd 5e56 f2bd
000002d0: 6377 a1bb 4a2a 8d3c 2fae fdbc b7e7 15be
000002e0: 2708 0a3d ad4d dfba 8e36 c93c 5887 ce3c
000002f0: d36b 0fbd 9666 343d 090f 2e3d 46a0 30bd
00000300: 5648 c73c af16 52bd c37c d8bc 64f6 073d
00000310: 518a 503d e8b7 ee3c 6063 84bd ddda bcbc
00000320: ac91 943d 7512 fe3c 7301 6e3c 3567 9a3d
00000330: f735 773d b2f2 8e3d 1b83 0cbc 6b6a 4c3c
00000340: eab3 873d 34fc ca3c 6139 133e 52c4 ed3c
00000350: 91a1 e7bc f8f8 0ebd 7119 abbd 2a27 ca3d
00000360: 4e97 fc3c dba7 003d 1a8c 35bc 4625 28bd
00000370: 9c24 5cbb 9773 8f3d 4128 c2bc 8408 08bd
00000380: d0cc 83bd 2bf7 a8ba 26f3 2b3c c0da e3bc
00000390: 2df9 b23d 58cc 36bc 304a 9f3c 8637 d33c
000003a0: 723f 5dbc ee19 0a3d 78f3 423d 5174 2a3d
000003b0: 28e9 15bc b4e8 653d 3eec a2bb 6dc2 c7bd
000003c0: d5bf 8a3d a455 003d 0d4c 023d b06f c93d
000003d0: 3348 0c3d e04b 973d 27ad f2bc b41a b73d
000003e0: 312b 2f3d 8d61 f8bc eec7 90bc 4b2b f0bb
000003f0: 068c 7b3d e832 30bd 1e22 23bd bfe1 c73d
0.03683034 0.025740033 -0.06888564 0.046217207 -0.022110213 -0.16150331 -0.025649458 -0.077842094
0.06830713 0.04830605 -0.04256546 0.0707334 0.06159147 -0.0020924397 -0.021460593 0.05575964
0.010929854 0.047695223 -0.024164004 0.093958385 0.09955158 -0.18378359 -0.010006185 -0.024781017
0.023326553 -0.05030644 -0.037239533 0.00846062 -0.041650407 -0.049430862 -0.024811786 -0.023531653
0.026255332 -0.09330696 0.009094807 -0.08876886 0.07230529 0.09503765 -0.041156713 0.12161352
-0.04281262 -0.028502371 0.009749922 -0.009705491 0.09449956 0.03976507 0.0562971 -0.00018422246
-0.004186095 -0.016005645 -0.06460768 0.0034104595 0.0813946 0.062207248 0.07624721 -0.027776195
0.08119298 0.052476007 0.059329312 -0.062315553 0.12365443 -0.128283 -0.010525365 0.027460014
0.09821845 0.05601041 -0.023995388 -0.059011802 -0.0712486 0.0103258975 0.026970569 -0.08800656
-0.072792865 -0.03788146 -0.08442106 0.028135758 -0.022199232 -0.14148133 -0.100670695 -0.01141765
0.012888535 0.028615743 -0.048492447 -0.004933789 0.054435622 -0.047918033 -0.061163478 0.008144766
-0.0226307 0.036131594 0.034477424 -0.053249676 -0.06262631 0.0066930363 0.034852255 0.058075827
0.049881894 0.039781395 -0.038282756 -0.04931623 -0.12848222 0.05872604 -0.049607575 0.07173288
0.038425278 0.10437091 0.06622789 -0.023857035 0.012116122 -0.0076778186 0.038074885 -0.034679048
-0.042617124 -0.1447896 -0.01863677 0.00497566 -0.016034232 -0.018541217 0.038660947 0.0018687102
-0.09110326 -0.07052953 -0.045573063 -0.048455894 -0.024460321 0.052906185 0.024107257 0.020375777
-0.046045844 0.014188056 0.082081884 0.051678408 0.0040258085 0.027402127 0.041737452 0.018822439
0.08088236 0.020059325 0.039002977 -0.08249004 -0.023935944 0.026207874 -0.03921057 -0.070122845
0.009281297 0.011684876 0.026490442 0.09969358 -0.03943368 0.01614746 0.021489618 -0.011607731
0.014981334 0.016955126 0.062503405 0.06330343 0.052092534 0.07217922 0.12085796 0.026290152
-0.03332469 -0.041011173 -0.05398199 -0.0034307535 0.041560765 0.03395104 0.033722226 0.0797209
-0.046199497 -0.023682995 0.073560216 -0.05000138 -0.04474907 -0.09439166 0.109745234 0.14220753
0.014992582 0.06896678 -0.03258726 -0.118328795 -0.004927562 0.017232079 -0.030966846 -0.14639173
0.03369918 -0.0017036699 0.024562147 0.025211021 -0.03501494 0.044043146 0.042494807 -0.0431216
0.024326485 -0.051291164 -0.026426679 0.03319396 0.05091316 0.029140428 -0.06464267 -0.02305358
0.07254347 0.03101466 0.014526713 0.075392164 0.0603542 0.06979884 -0.00857618 0.012476544
0.06626113 0.024778463 0.14377357 0.029024277 -0.028275283 -0.034905404 -0.08354462 0.09870751
0.030833866 0.03141008 -0.011080766 -0.04105117 -0.0033591157 0.07004469 -0.023700835 -0.033211246
-0.06435549 -0.0012891045 0.010494983 -0.027814269 0.08738933 -0.011157118 0.019444555 0.025783312
-0.013503896 0.033716135 0.04759547 0.041614834 -0.009149827 0.056130126 -0.00497201 -0.09753881
0.0677487 0.031331673 0.03181081 0.09835756 0.034248542 0.07387519 -0.029623581 0.0894064
0.0427658 -0.030319953 -0.017673459 -0.0073293797 0.061412834 -0.043017298 -0.03982746 0.097598545

conv3.bias f4 [32]
00000000: 065c 6b3c 6805 bdbc 0f7d 1fbd 4b74 b3bc
00000010: 739a d8bc 032c 19bd 46da 9c3c 5561 073d
00000020: c2d1 2fbd 269b f6bc 158e f1bc 1d90 eabc
00000030: 34e0 42bd 18cc c5bb a344 273d 5183 97bc
00000040: 2399 063c b233 39bd cfe6 0e3d 8303 513b
00000050: 834b a73b 4e21 3b3c 5553 283d 9dc7 a8bb
00000060: 5b48 67bd 9a7d eebc 0c01 65bd 9e0b fabc
00000070: 6b47 7cbd 16c3 64bd 7565 563d f5aa e6bc
0.014365202 -0.023073867 -0.038937625 -0.021906039 -0.026440835 -0.03739549 0.01914705 0.033051807
-0.04292465 -0.030103277 -0.029486695 -0.028633172 -0.047577098 -0.0060362928 0.04083694 -0.018495234
0.008215222 -0.045215316 0.034888085 0.0031892962 0.0051054372 0.011421515 0.041095097 -0.005150749
-0.056465488 -0.029112626 -0.0559092 -0.030523118 -0.061591547 -0.05585011 0.05234285 -0.02815769

bn3.weight f4 [32]
00000000: 128b 7a3f 554e 703f 3720 683f 6858 863f
00000010: db1c 8b3f 0f30 613f 8f4a 8c3f 895f 693f
00000020: 4c19 8b3f fd0f 803f 29b3 693f d018 8f3f
00000030: b748 743f 52c3 893f 66cd 833f ad80 813f
00000040: c4ee 873f 0b5b 693f b292 8e3f 96ea 893f
00000050: 6014 683f 37ad 703f 1df1 743f ff2e 693f
00000060: cef6 793f 051b 823f 3a34 863f 6a1b 883f
00000070: 1bbd 5e3f 0ca4 843f 65df 6a3f 15ed 8e3f
0.97868454 0.93869525 0.90674156 1.049573 1.0868181 0.87963957 1.0960253 0.911614
1.0867095 1.0004879 0.91289 1.1179447 0.95423454 1.0762732 1.0297058 1.0117394
1.061974 0.91154546 1.1138518 1.0774715 0.9065609 0.94014305 0.9568041 0.91087335
0.9764222 1.0164496 1.0484688 1.0633366 0.870073 1.0362563 0.91747123 1.1166102

bn3.bias f4 [32]
00000000: 2908 3e3d df09 adbd 5385 a5bd ef3e 4dbe
00000010: 3ebd 98bc 58fe 34be 6b7f 35bc 02c2 05be
00000020: b3c0 54b9 abc9 973c 7d02 90bd 3bcb abbc
00000030: e095 003b 5586 183b e6a4 af3c 42c6 00bd
00000040: d988 693b 1e23 d6bc f109 0cbc 0ffc f4bd
00000050: f540 783d bab1 b2bd 47a6 69bd d7a3 03be
00000060: bbdd f9bd 5541 3a3d ba6d 8f3d 5e96 9dbb
00000070: fb32 98bd 9a64 95bd 912f 0abe 222c 85bd
0.0463945 -0.084491484 -0.0808207 -0.20043539 -0.018644925 -0.1767515 -0.011077742 -0.1306229
-0.00020289682 0.01852878 -0.070317246 -0.020970931 0.0019620582 0.0023273428 0.021440934 -0.031439073
0.0035634546 -0.026139792 -0.008547292 -0.11962139 0.060608823 -0.08725305 -0.05704334 -0.12855469
-0.12200495 0.04547246 0.070033506 -0.004809185 -0.07431599 -0.07294579 -0.13494708 -0.06502558

bn3.running_mean f4 [32]
00000000: 3c0b 023f c24e aabf 7414 a23f 610d 50bf
00000010: b731 813e dae5 1d3f c88d 59bf 3d1d 3c3f
00000020: 14fb fc3b 1a53 80be 1c98 fb3e 1aac 8ac0
00000030: 5073 763a c483 70c0 c9cc 6ac0 36e5 03c0
00000040: e244 0dc0 f051 003e e45f 18be d961 05c0
00000050: b0c8 24bf 43bb 073f 7ab8 e6bd 2dbc f6bd
00000060: e2db 67bf 3bf8 5dbf 65c4 943f eaa6 e83e
00000070: 8698 d0bf 96a7 66be 724b eb3f c023 b73e
0.5079839 -1.3305285 1.2662492 -0.81270415 0.25233242 0.6167885 -0.84981966 0.73482114
0.0077203605 -0.250634 0.49139488 -4.3335085 0.0009401338 -3.7580423 -3.668749 -2.060865
-2.2073293 0.12531257 -0.1488033 -2.0840971 -0.64368725 0.53020114 -0.11265655 -0.120476104
-0.9056989 -0.86706895 1.1622435 0.45439845 -1.6296546 -0.22524866 1.8382399 0.35769463

bn3.running_var f4 [32]
00000000: 2642 1840 264e 0140 0997 1140 e4e0 3c40
00000010: 581c 4940 7f5d 3040 052e 4940 d5e8 1240
00000020: 3432 3140 55e6 ef3f 9330 0440 2341 ea40
00000030: 89ac aa3f ac13 ef40 2741 9f40 4b44 0040
00000040: e2d2 9140 530a 0440 6f8b 3a40 5a2a fb3f
00000050: d360 4440 e651 1340 0541 da3f 3692 0d40
00000060: 6640 5540 b378 6d40 e5d8 df3f 764b b43f
00000070: 75bc f73f 2fb4 7340 7b7e 8140 91a5 0e40
2.3790374 2.0203948 2.2748435 2.9512262 3.142355 2.7557065 3.1434338 2.295461
2.7686892 1.8742167 2.0654647 7.3204513 1.3333904 7.4711514 4.976703 2.0041683
4.5569925 2.0631301 2.9147604 1.96223 3.0684097 2.3018737 1.7051092 2.212049
3.3320556 3.710492 1.7488066 1.4085529 1.9354388 3.8078725 4.0466895 2.2288554

classifier.0.weight f4 [32, 288]
00000000: ae6a c93d b517 3b3c b70f 073d 8028 af3b
00000010: c408 b4bd 7de3 3c3d 98d5 36bc e98b 0b3d
00000020: 099e 1dbe e5ec 193d 7476 c4bb 760d ad3c
00000030: 4d1a 8a3b 87a3 21bb e0d9 c43c 18a3 43bd
00000040: 4ea1 613d a6d4 aebc 5c16 be3c ba93 1a3b
00000050: 10a4 0abd 5e99 0cbd 7679 0bbd 67ed 8bbd
00000060: ae69 ebbb f4db 4e3c b97e ec3b 4b1c ba3c
00000070: aee8 433d 919a 9fb7 2c82 0c3d 7feb 1cbd
00000080: 8dab 43bd bd57 503d 7f96 ccbd 3954 223d
00000090: a6f8 4b3d da17 843c 2805 8c3d bc6f 003d
000000a0: 6e2f 57bd 16eb 2dbd 28fe cc3c db08 ffbd
000000b0: 6f75 cf3c 1c98 013d ddda fd3c 0da6 083c
000000c0: 7e71 6c3d d87b 9c3d 9ee7 46bd dd8c 8c3d
000000d0: 3d27 c8bd 2794 8bbb 1ef9 c53c c5a9 893d
000000e0: 7fd6 073b ffe6 0b3d 2ac5 0dbe a7d6 84bd
000000f0: 4167 e83c 092c 093e 9f03 5cbd cdbd abbd
00000100: 4a01 70bd 2f08 b6bc d812 b0bd 23c4 593d
00000110: e388 4b3d eafd 92bc 77a1 29bc d9ad 573d
00000120: c4e7 87bd f248 cebc 9c43 72bc eb85 0abd
00000130: 833a 873d 1fc6 5bbd db2a c73c f3d0 493d
00000140: c240 d43d c265 09be 7beb cabd bb94 03bd
00000150: d18b 0ebd 237d 42bd 22a7 1dbc 98a2 42bd
00000160: 9221 b93c e7aa 233e 952e c83c 4fa8 bcbd
00000170: 8a40 40bc 5590 413d 6581 0ebd 273a fe3c
00000180: 237f 82bb 0efb eabc 63b6 08be 31a5 ee3c
00000190: d5df 05bd c5f2 a33b 6369 ab3c c22e 0e3d
000001a0: 86cd d13d 0906 43bd c52a ac3d 1ff6 1abe
000001b0: 719c e5bb 71d2 da3b da85 6fbd e62f 773d
000001c0: 2b59 943b 1060 71ba 4456 503d 8b3e 82bd
000001d0: 5416 023e cea1 52bc fb70 ddbc fd52 53bc
000001e0: d290 f63c 20a5 323e 70a7 b43d aacd 57bd
000001f0: 749d 403d 2482 00bc 2687 5e3d c6a6 ec3c
00000200: 8583 08bd 71f8 243d 7230 4a3c d359 423d
00000210: f991 c53c 0e1c aabc 0a96 9a3d 52b8 7f3c
00000220: 663e 3cbd 406b 143d 993c 2e3c 8b6e eb3d
00000230: 471a d93d c9eb 02bd e0e3 0d3c b8eb 73bc
00000240: 7411 453d 063f 0fbc 2c47 2c3c c26b a3bc
00000250: 9fed ad3d ef4d 853d dbce 283d 50aa 9abd
00000260: aa32 31bd 8e11 ae3d b922 ab3c 3173 073d
00000270: cfae 28bd efa6 ebbc 11c0 11be 5840 2ebc
00000280: e52b 24bb ea4c 783c 509a a2bd 8f98 203d
00000290: a3ed 533c 8bcf 3c3d 4688 00bb a558 adbd
000002a0: 665e fe3d edba e63d 2e30 f13d 468e 613d
000002b0: 5c41 a1bc a679 333d d957 d73d 1671 2d3e
000002c0: d897 86bd 9abc 83bb d6f3 49bd 6753 483d
000002d0: 497d 513d 8679 7abd 6e15 0fbc e150 1dbc
000002e0: 057c 0b3d a22b e5bc 8be3 353d a157 f1bc
000002f0: ebf7 813c 2df6 73bd c8b9 a1bc 356e bdbc
00000300: 6154 023e 79dd 58bd de68 0dbb 58c6 95bd
00000310: 0482 8abb 5f17 993d 4c2d a2bc ef26 b33d
00000320: 249b 023d 401c 7fbd ab04 27bd 378b 95bc
00000330: f149 19bd 7a29 0c3d ca81 84bd 0bc4 1d3d
00000340: 5512 b33c 895d 773c bee0 d8bc 6a1b 18bb
00000350: 4277 433c c3ca 9a3b a322 493d 6ffa db3d
00000360: 1e9c 96bd 0994 a3bd 7385 44bc 8c70 723c
00000370: 48fe b33c d8ee 6d3d 5005 cc3b c6ff bcba
00000380: dcf9 11bd 3a60 6bbb 0749 593b b333 143c
00000390: 7eb1 ba3c d10b e4bc 8001 003e fe6c 143d
000003a0: fee1 953d 7377 adbd 1e89 89bc 0570 b1bc
000003b0: aedf 01bc 8d6b 9dbc 2224 84bd ff4b 29bd
000003c0: ed69 bd3d 9396 ac3d 16e2 6e3c 4e67 ab3c
000003d0: 6c1b af3c 3945 893c cdca e9bb be6a 95bd
000003e0: ab61 cd3d 72ea a6bc c8bb 943c 5f0e 19be
000003f0: fe7d 713d 97a3 d9bb de98 7f3c 5dcb 0e3c
0.09834801 0.011419226 0.03297397 0.005345404 -0.087907344 0.046115387 -0.011159323 0.034068976
-0.15392317 0.037579436 -0.005995566 0.021124583 0.004214561 -0.002466412 0.024029672 -0.04776296
0.055085473 -0.021341633 0.023204021 0.0023586587 -0.03384787 -0.03432595 -0.03405138 -0.0683239
-0.007184229 0.012625683 0.007217255 0.02271857 0.047829323 -1.9026253e-05 0.03430383 -0.038310524
-0.047771025 0.050864924 -0.09989642 0.039631102 0.049797677 0.016124655 0.06836921 0.03135656
-0.052535467 -0.042460524 0.025023535 -0.12452861 0.025324551 0.031639203 0.030988151 0.008340371
0.057725422 0.07640809 -0.04856073 0.06862805 -0.09773109 -0.0042596045 0.02416664 0.06721834
0.0020727215 0.034155842 -0.13844743 -0.06486254 0.028369548 0.13395704 -0.05371439 -0.08385811
-0.05859498 -0.0222207 -0.08597344 0.053165566 0.049691092 -0.017943341 -0.010353438 0.05265603
-0.06636003 -0.025181267 -0.014786627 -0.03381912 0.06602957 -0.05365574 0.024312427 0.049271535
0.10363914 -0.13417724 -0.099081956 -0.032124262 -0.034801308 -0.04748262 -0.009622367 -0.047518343
0.022599015 0.15983163 0.024436275 -0.0921179 -0.011734137 0.047256786 -0.03479137 0.031033589
-0.003982441 -0.028684165 -0.13350825 0.029131504 -0.032684166 0.0050033056 0.020924276 0.03471256
0.102442786 -0.047613177 0.08406595 -0.1513295 -0.0070071747 0.0066779186 -0.05847726 0.060348414
0.004527231 -0.0009207735 0.05086352 -0.063595854 0.1270383 -0.01285596 -0.027031412 -0.012898204
0.030098353 0.17445803 0.08820999 -0.05268637 0.04702516 -0.007843528 0.054328106 0.028888118
-0.03332855 0.040275995 0.012340652 0.047448944 0.024117457 -0.02076533 0.07548149 0.01560791
-0.045957945 0.036235094 0.010634565 0.11495694 0.10600715 -0.031963143 0.008660287 -0.014887743
0.048112348 -0.008743053 0.010515016 -0.019948844 0.08492588 0.06509005 0.041212898 -0.07552016
-0.043261208 0.08499442 0.02089058 0.03306884 -0.041182335 -0.028766124 -0.14233424 -0.010635458
-0.0025050577 0.0151550565 -0.07939589 0.03920799 0.012935075 0.046096366 -0.0019612475 -0.08464173
0.12420349 0.11266122 0.11776768 0.055067323 -0.019684486 0.043817185 0.105148025 0.1693767
-0.06571931 -0.004020286 -0.049304806 0.048907664 0.05114487 -0.06115105 -0.008733137 -0.009601803
0.03405382 -0.027974907 0.044406455 -0.02946073 0.015865287 -0.059560943 -0.019741908 -0.02312384
0.127275 -0.052945588 -0.0021577398 -0.07313222 -0.004226925 0.07475161 -0.01979699 0.0874766
0.031886235 -0.0622828 -0.040775936 -0.01825486 -0.03742403 0.034219243 -0.06470068 0.03851704
0.021859327 0.015097984 -0.026474353 -0.00232097 0.011930289 0.004723878 0.049105298 0.10741126
-0.07353996 -0.0798722 -0.011994707 0.014797341 0.021971837 0.058089107 0.0062262192 -0.0014419488
-0.035638675 -0.003591551 0.00331551 0.009045529 0.022789713 -0.027837666 0.12500572 0.036236756
0.07318495 -0.08470049 -0.016789015 -0.02165986 -0.007926865 -0.019216323 -0.06452204 -0.04133224
0.09248719 0.08427157 0.01458027 0.020923283 0.02137538 0.01675664 -0.0071347714 -0.0729575
0.10028394 -0.020375464 0.018155947 -0.14946888 0.058958046 -0.006641816 0.015600411 0.008715478

classifier.0.bias f4 [32]
00000000: 4970 1a3b 0fee 963d 8c92 d83c b073 8d3d
00000010: 5985 d63c 0882 1c3d 929b 63bd baf9 413d
00000020: afe9 57bd 1bc1 a93d 0caa 42bd e36d 3a3d
00000030: e661 bb3c bcc6 1c3c 1157 023d 79ab 4a3d
00000040: 83db a53d b250 5a3d 6389 a63d 6d17 e3bc
00000050: f798 76bb 6948 22bc 8424 bcbc fbaa c3bb
00000060: 12b2 48bd 92ab d03c e2ad df3d 09a8 d9bd
00000070: 9598 653d f0dd 273d f02c bc3d 0b29 ad3d
0.0023565462 0.07369625 0.026437066 0.06906831 0.026186632 0.038209945 -0.055568285 0.0473573
-0.052713092 0.08288785 -0.04752545 0.045514952 0.02287383 0.009568866 0.031821314 0.049479935
0.08098509 0.053299613 0.08131673 -0.027721131 -0.0037627795 -0.009904959 -0.02296663 -0.00597131
-0.048997946 0.025472436 0.109218374 -0.10627753 0.056053717 0.04098314 0.09188259 0.08455094

classifier.2.weight f4 [32]
00000000: d021 be3f da59 b83f 2ad9 b43f fa00 bc3f
00000010: a61a b73f 9a9f b93f 42a6 ba3f 532e b23f
00000020: 849b c43f 5d8e bb3f 4f23 803f f30b c03f
00000030: 3499 b63f 3a90 b63f 5dbe 7d3f 7afc b83f
00000040: 69c2 b73f fc2f 7f3f ee42 b13f 9d9f c23f
00000050: cff4 c73f cc5c bd3f 9a4e 773f 8ef6 7f3f
00000060: 4f51 7f3f 3523 7d3f 515c b93f 202f 7d3f
00000070: 902f b93f 3c96 b73f e2ce bf3f b14d b93f
1.4854069 1.440242 1.4128773 1.4687798 1.4305007 1.4501832 1.4581988 1.3920387
1.535996 1.4652821 1.0010775 1.5003647 1.4265504 1.4262764 0.99118596 1.445205
1.4356204 0.99682593 1.384855 1.520496 1.5621585 1.4793944 0.9660431 0.9998559
0.9973344 0.98881847 1.4481298 0.9890003 1.446764 1.4342723 1.4985011 1.4476835

classifier.2.bias f4 [32]
00000000: 809d 943d 4d10 8cbd 9cdb 593d 41d5 efbc
00000010: a26a 61bd d99b 5cbd 61a0 f63d 60e3 f6bc
00000020: 525e 753d 02d1 3ebd 4164 9ebd 9050 073d
00000030: ae3d 9cbd e810 45bc d3db 66bb 088f d33c
00000040: 6316 1fbd 7f97 9c3d b5cf d73c 8c3f 22bc
00000050: 9a8f a8bb 6281 4c3d 56df 483d d2c6 9f3d
00000060: 96bd 523d b91c 5e3d 8918 0abe ca4a ad3d
00000070: 0899 4bbd 43c9 ed3d d067 27bc 928b adbd
0.07256603 -0.068390466 0.05318795 -0.029276492 -0.055033334 -0.053859565 0.120423086 -0.030137718
0.059904404 -0.046586044 -0.07733966 0.033035815 -0.07628952 -0.012027957 -0.003522624 0.025825039
-0.03883971 0.07646083 0.02634416 -0.009902846 -0.0051440718 0.049928077 0.049041115 0.07801594
0.051450334 0.05422661 -0.13485922 0.084615305 -0.04970649 0.11610653 -0.010217622 -0.084738865

classifier.2.running_mean f4 [32]
00000000: 31bc 023f 4fcc e43f 94d6 be3f 72d9 a53f
00000010: 7787 4e40 a607 7a3f 33cc 0e40 340e d93f
00000020: 0cb9 d93f be57 0740 0400 0000 93cb df3f
00000030: 67ed bc3f 9b3f 8d3f 2676 c20b 6233 4040
00000040: 4e01 1240 0400 0000 db8f bf3f e32d 5f40
00000050: 653c 763f b7a6 1840 c23a 0000 0000 0000
00000060: 0400 0000 fa27 0000 0341 0340 f84d c807
00000070: 5b89 723f 8a3b 2340 e2ff ed3f 55de 2240
0.5106841 1.787485 1.4909234 1.2956984 3.227018 0.9766792 2.2312133 1.695746
1.7009597 2.1147304 6e-45 1.7484001 1.475995 1.1035036 7.490385e-32 3.0031362
2.2813296 6e-45 1.4965776 3.4871757 0.96185905 2.3851755 2.1078e-41 0.0
6e-45 1.4341e-41 2.050843 3.0138481e-34 0.9474084 2.550509 1.8593714 2.54482

classifier.2.running_var f4 [32]
00000000: 2dde 263f 5d36 0840 c1c4 ea3f f9ca d63f
00000010: 7549 0940 c63e b33f af34 2540 ec2e dd3f
00000020: 6aec f73f 5824 0e40 5500 0000 21ba 0c40
00000030: 8e9c df3f 9935 8b3f a860 540a 52db 1340
00000040: 31c6 b83f 5500 0000 7ee1 953f ad8d 3140
00000050: a4ac fa3f aae0 e63f fe00 0000 5500 0000
00000060: 5500 0000 0d05 0000 4d45 0240 31af a006
00000070: eed6 d83f 3b55 2b40 edb0 c63f 51a3 0540
0.65182763 2.128318 1.8341295 1.6780692 2.1451085 1.4003532 2.5813406 1.7279944
1.9369023 2.2209682 1.19e-43 2.1988604 1.7469652 1.0875732 1.0225608e-32 2.3102612
1.4435483 1.19e-43 1.170944 2.7742722 1.9583936 1.8037312 3.56e-43 1.19e-43
1.19e-43 1.812e-42 2.0354798 6.044273e-35 1.6940591 2.677077 1.5522743 2.088093

classifier.3.weight f4 [10, 32]
00000000: 9433 92be 868a d5be e301 91be 687c d03e
00000010: e592 433e 6021 403e 8c50 4ebe 2b9d 2c3e
00000020: 9b65 debe c557 b13e 1fcb cbbc ec2c ce3e
00000030: fad2 de3e 98ba e23e 04bb 9e3d 6a6e e13e
00000040: b9ac a53d a36b a1bd bae0 b43e c461 b73e
00000050: 6498 8bbe 5a2c 8f3d 0ad8 24bd fa22 41be
00000060: 06ca 08be 5a5c 1abe 8629 f43e e54a 4dbe
00000070: caae 96be adb8 b4be 4ff8 8a3e 299f 8f3e
00000080: 55fd a53e 3916 a03e 0176 a7be f445 bc3e
00000090: 5a9a c0be 6ba1 c33e 6cb6 61be ec07 b6be
000000a0: 67f9 fd3d 4ad0 6abe 6c73 31be 74ba c4be
000000b0: fdba afbe 413d b6bd e8a5 0bbe 5f93 b13e
000000c0: 287d b03e 3e9e 0dbe af36 a63e 5613 c4be
000000d0: a7e5 c13e 62fc 65be b262 1ebe 2c6c 8dbb
000000e0: 0c3e 61bc 120e 253d 1544 583e 0a00 ca3d
000000f0: 82d4 cebe 6626 a7be 6fc9 9b3c 8538 aabe
00000100: 3ab5 af3e 8095 c6be 8a09 963e 8928 cd3e
00000110: 75ac 883e 8e25 9cbe 862b 39be 0a7e b83e
00000120: e721 8b3e 79ff 1abe 427a 413d 215f e9be
00000130: 9472 b3be 1513 a83e bf63 193e 7c2a 163e
00000140: 01c4 b63e bf08 553d 44e5 91be 2b2b 093e
00000150: adfc 20be 8daf c43e eb51 f23d ecc2 e93d
00000160: 8ba9 293e 0480 07be 9b48 d8be 58a7 cfbd
00000170: 9028 c3be 0c49 ddbe 44f5 9cbe ec6e 223e
00000180: 88e0 e13d 319b a5be 7087 963e 4a70 753e
00000190: b5df 92be 71a3 debe c520 963e 1607 5fbe
000001a0: 35ef aebe b0b1 fe3d 0094 f3bd d3d5 e5be
000001b0: 07d8 17be ded6 8bbe 07a3 2cbe b745 f9be
000001c0: dc84 bc3e 135e 0bbe 4696 c23e 3ce5 833e
000001d0: 5b62 76be 83f2 e8be 4cd2 9c3d 6d28 00bd
000001e0: 51bc a93c cf3f f7bd 35fd d4be cf4e 0a3e
000001f0: 0853 84be 4891 9a3e 2262 a93e 448a 9a3e
00000200: 9a77 c23e 04da a83e 21d3 95be 8bea 49be
00000210: e2c0 62be 002d 483e 395e bdbe f0f4 163e
00000220: d437 ad3e a1da d1be 2d67 70bd abd3 b4bc
00000230: 24c7 a73e 6e8c a2be 70e1 043d 7ff8 c8bd
00000240: e42e d6be eef3 11be 57ee 7d3d 452a 943e
00000250: a8c3 0bbe 3d7b 21bd 2e00 a7bc 6ce6 9bbc
00000260: 96c7 6c3d d657 d03b 8349 383e e13b bc3b
00000270: c5b0 c43e 29fa 1bbe fb09 c0be 5138 ea3e
00000280: b35d 4cbe 0e66 b23e 7cff 14be 0676 94be
00000290: 8961 c4be 5e3c cfbe f09e 8b3e 1333 90be
000002a0: 2c2f d6be 16c1 af3e d8ed ad3d 8b1d bfbe
000002b0: 971d 21be 3ef6 953e b551 903d ff7b 85be
000002c0: c44d b23e 3c63 48be 2870 dabe 624a e4be
000002d0: 2d50 2abe 14e9 d03e 5779 1ebe 6175 823d
000002e0: d6c3 4dbe 4d2c 22be a47e c23e 6fb5 a5bb
000002f0: e52e 7b3e 0bac 923e 046e 473e a947 c63e
00000300: 8156 a6be 1d6c d4be 2c87 bdbe 37b8 863e
00000310: 3ff9 a13e bb92 c73e 0a79 893e 6b67 16be
00000320: c7ed 9e3e e3c2 b63e ee11 44bd d802 f4be
00000330: 84d0 b73e a602 a3be f008 03be 447c 9a3e
00000340: 0bdc 1ebe 9a06 13be a2c0 c6be b1ef d4be
00000350: f619 1ebe ec83 6f3e 0f5d 123d 77bb 0b3e
00000360: 83d4 af3d 79b7 a83d 8883 26be 0d7a f9bd
00000370: 952c d03e 582e 92be fae0 c73e ca4e 1e3e
00000380: 2e8f d8be 0093 843e ec02 003e 1b00 c1be
00000390: 1fa3 b73e 0ab0 eabe 5d96 cdbe 91c0 813e
000003a0: e21c 693e 8f6d 653e 7fe9 c0bc 3f39 3bbc
000003b0: 2c4a 7dbe dfcf 04bd ba75 8ebd ac88 e4be
000003c0: b17e 63bd a31a 7d3c 0d7c a5be 0caa 733e
000003d0: 5141 f73e 05ce adbe e17d bd3d 379e a83d
000003e0: 295c ce3d 34b0 94bd e808 8e3e 6697 36be
000003f0: 9b44 0cbe 910d c1be 9f83 1e3d f6cb e0be
-0.28554976 -0.41707247 -0.28321752 0.40719914 0.19099005 0.18762732 -0.20147914 0.1685683
-0.43436894 0.34637275 -0.02487713 0.40268648 0.43520337 0.44282985 0.07750514 0.44029552
0.08089585 -0.07881858 0.35327703 0.35816777 -0.27264702 0.06990881 -0.040245093 -0.18860999
-0.13358316 -0.15074292 0.4768793 -0.20048101 -0.29430228 -0.35297146 0.2714257 0.28051117
0.3241984 0.31266955 -0.32707217 0.3677212 -0.3761776 0.3820909 -0.22042245 -0.3555292
0.12401085 -0.22931018 -0.17329186 -0.38423502 -0.34322348 -0.08898402 -0.13637507 0.34682748
0.34470487 -0.13829896 0.32463595 -0.38296002 0.37870523 -0.22459558 -0.15467337 -0.0043158736
-0.013747703 0.04029662 0.21119721 0.09863289 -0.40396506 -0.32646483 0.01901695 -0.33246246
0.34317952 -0.38785934 0.29304153 0.40069988 0.26694074 -0.30497402 -0.18083009 0.3603366
0.27174303 -0.15136518 0.047235735 -0.4558039 -0.35048354 0.32827058 0.14979456 0.14664644
0.35696414 0.052010294 -0.28495228 0.13395374 -0.15721388 0.38415185 0.11832031 0.114141315
0.16568582 -0.13232428 -0.42242894 -0.1013934 -0.38116884 -0.43219793 -0.30655873 0.15862626
0.11029154 -0.32344964 0.29400206 0.23968616 -0.286863 -0.4348407 0.29321876 -0.21780047
-0.34166875 0.12436235 -0.11893463 -0.44889697 -0.14828502 -0.27312368 -0.16859065 -0.48686
0.36820114 -0.13610105 0.38005275 0.2576083 -0.24060957 -0.45497522 0.076572984 -0.031288553
0.02071968 -0.120727174 -0.41599432 0.13506626 -0.25844598 0.30188966 0.33082682 0.30183613
0.37981874 0.32978833 -0.2926264 -0.19718377 -0.22143891 0.19548416 -0.3698595 0.14741874
0.33831656 -0.40987113 -0.058692146 -0.022073587 0.3276912 -0.31747764 0.032441556 -0.09813022
-0.4183265 -0.14253208 0.061994877 0.289385 -0.13648856 -0.03942417 -0.020385828 -0.019030772
0.057807527 0.006358127 0.17996792 0.005744443 0.38416114 -0.15232147 -0.37507614 0.4574609
-0.19957618 0.34843487 -0.14550585 -0.28996295 -0.38355663 -0.40475744 0.27269697 -0.28163967
-0.41832864 0.34327 0.08492631 -0.37327227 -0.15733944 0.2928943 0.070468344 -0.26071164
0.34824955 -0.19569105 -0.42663693 -0.44588 -0.16632147 0.40802824 -0.15475975 0.063700445
-0.20094237 -0.15837212 0.37987244 -0.005057029 0.24529608 0.28646883 0.19475561 0.38726547
-0.32487872 -0.41488734 -0.3701719 0.2631242 0.31635472 0.38979134 0.26850158 -0.14687888
0.31040785 0.35695562 -0.04786866 -0.4765842 0.35901272 -0.31837958 -0.12796378 0.30172932
-0.15513627 -0.14357987 -0.38818842 -0.4158912 -0.15439591 0.23390168 0.03573328 0.13645731
0.08585455 0.0823812 -0.16261113 -0.121814825 0.40659013 -0.28550982 0.3903883 0.15459743
-0.42296737 0.25893402 0.12501115 -0.37695393 0.3586664 -0.45837432 -0.4015378 0.2534223
0.22764924 0.22405075 -0.02354884 -0.011427223 -0.24735326 -0.032424804 -0.06956048 -0.44635522
-0.055540744 0.015448245 -0.32321206 0.23795336 0.4829202 -0.33946243 0.09252525 0.08233302
0.10076172 -0.072601706 0.2774117 -0.17831191 -0.13698046 -0.37705663 0.038699742 -0.4390561

classifier.3.bias f4 [10]
00000000: 07e9 8a3d eb8f 86bd 3280 df3d a980 bcbc
00000010: 19a6 ba3d b478 673d 142f 2bbe 5b02 603d
00000020: 1240 3c3c 63be b4bc
0.06782728 -0.06570419 0.10913123 -0.023010569 0.09113712 0.056511596 -0.16717178 0.054689746
0.011489885 -0.02206344
