Session5/mnist_model_20241214_231548.pth (torch, 106276 bytes, 26 tensors)

conv1.weight f4 [16, 1, 3, 3]
0	0xbd791713	-0.06081302
1	0xbe8aa13a	-0.2707613
2	0x3d4b4fdc	0.049636707
3	0x3e61c36e	0.22047207
4	0x3c83222e	0.01600751
5	0xbe6f4453	-0.23365907
6	0xbdfee814	-0.12446609
7	0x3e989055	0.29797617
8	0xbd64a73a	-0.055823542
9	0x3ea6a834	0.32550204
10	0xbe7aa177	-0.24475656
11	0xbea40b95	-0.32040086
12	0x3e93d6df	0.2887487
13	0xbe31eeb4	-0.17376214
14	0x3deb1551	0.11478675
15	0x3e3c48a2	0.18387082
16	0x3e785389	0.24250616
17	0xbbada709	-0.005299453
18	0xbe4fddb9	-0.20299424
19	0xbe6cb7bd	-0.23116966
20	0x3e4d2f53	0.20037584
21	0xbe440950	-0.19144177
22	0x3e60ea34	0.21964341
23	0xbd21dcc9	-0.039517198
24	0x3e7f640a	0.24940506
25	0x3e8f434c	0.2798103
26	0xbe987ba8	-0.29781842
27	0x3e84e419	0.25955275
28	0x3e7a0a79	0.24418058
29	0x3ed02fc4	0.40661442
30	0xbd9aa129	-0.0755027
31	0xbe5bbf86	-0.21459779
32	0x3caa95d5	0.020823399
33	0xbea82918	-0.32843852
34	0x3dc4a68a	0.09602077
35	0xbea36018	-0.3190925
36	0x3d25bcdc	0.040463313
37	0x3d8b86b8	0.06812805
38	0xbdd2452d	-0.102671005
39	0x3e8b8a49	0.2725394
40	0xbe79bb9e	-0.24387977
41	0x3e7c150d	0.24617405
42	0xbe5b2501	-0.21400835
43	0xbea6a09b	-0.32544407
44	0xbe7ca220	-0.24671221
45	0xbe1b4d41	-0.15166189
46	0xbd6ca175	-0.057771165
47	0x3e4c7cdd	0.19969507
48	0x3cf927e5	0.030414531
49	0xbeb64c3f	-0.35605046
50	0xbe393dd4	-0.18089992
51	0x3e43f8dd	0.19137903
52	0x3e0d68ce	0.13809511
53	0xbdc2d0b4	-0.09512463
54	0xbd680350	-0.056643784
55	0x3dbc3211	0.09189237
56	0x3d05f2bd	0.032702196
57	0xbe0f1e44	-0.13976389
58	0x3dffa48e	0.12482558
59	0x3e0661af	0.13123201
60	0xbe939554	-0.28824866
61	0xbd63c106	-0.055604003
62	0x3db10103	0.08642771
63	0x3e8cc3ea	0.2749322
64	0xbe87216b	-0.26392683
65	0x3d869826	0.06571989
66	0xbe1b87be	-0.151885
67	0x3dc97277	0.098362856
68	0x3ed12306	0.40847033
69	0x3e519c83	0.2046986
70	0xbb928d53	-0.0044724136
71	0xbdd8a359	-0.10578031
72	0x3e98d85b	0.29852566
73	0xbe9112ce	-0.2833466
74	0xbd2e2739	-0.042517874
75	0xbdf0b4ed	-0.11753259
76	0xbe43e8d3	-0.19131784
77	0x3e6c2e72	0.23064592
78	0x3c70d406	0.014698988
79	0x3d332e89	0.04374555
80	0x3cc7ea5d	0.024403745
81	0xbed0c07a	-0.40771848
82	0x3e096316	0.13416705
83	0x3e131e1b	0.14366953
84	0xbd47af33	-0.048751067
85	0xbe3cac69	-0.18425144
86	0x3e5a9d1b	0.21348993
87	0xbe7ecbbd	-0.24882407
88	0x3d248d0a	0.040173568
89	0x3df8d596	0.12150113
90	0x3d4267cc	0.04746227
91	0xbea370b1	-0.31921914
92	0x3e7b6f76	0.24554238
93	0xbeb40149	-0.3515723
94	0xb9c5dbae	-0.00037738442
95	0x3e82ae94	0.25523818
96	0xbe414c13	-0.18876676
97	0x3d87242f	0.06598698
98	0x3e80c11b	0.25147328
99	0xbe9903e5	-0.29885784
100	0xbe95106d	-0.29114094
101	0xbdaee9a1	-0.08540655
102	0xbe54f552	-0.20796707
103	0x3e34f6fd	0.17672344
104	0xbd3d0997	-0.046151724
105	0x38e7d502	0.00011054614
106	0x3e56aa13	0.20963316
107	0x3e57e0e8	0.21081889
108	0xbe975b9f	-0.2956209
109	0xbe19d04f	-0.1502087
110	0x3ded303f	0.11581468
111	0x3e1ebfc7	0.15502845
112	0xbe92eaf9	-0.28694895
113	0xbeb8bdcd	-0.36082307
114	0x3e88f169	0.2674668
115	0x3e54dbbf	0.20786951
116	0x3e4ec022	0.2019048
117	0xbdf06dd3	-0.11739697
118	0x3d7c9416	0.061664663
119	0xbe052a4b	-0.13004415
120	0xbba3a477	-0.004993971
121	0x3e0c3879	0.13693418
122	0x3eab6baf	0.33480594
123	0x3dae626a	0.08514865
124	0xbe93ce20	-0.28868198
125	0xbe075776	-0.13216957
126	0xbd2575a6	-0.0403954
127	0x3d21a44e	0.039463334
128	0xbe7f74f6	-0.24946961
129	0x3e5af2bd	0.2138166
130	0x3d173a8d	0.036921073
131	0xbe696767	-0.22793351
132	0x3dc024fe	0.09382056
133	0x3db0235a	0.08600493
134	0xbdb11b9c	-0.08647844
135	0x3bf59887	0.0074949893
136	0x3c7489a3	0.014925393
137	0x3eb8c83d	0.3609027
138	0x3d0e0821	0.03467572
139	0x3e21d8e8	0.158054
140	0x3c9ffa57	0.019528551
141	0x3d52d1af	0.0514695
142	0x3e9efc0a	0.31051666
143	0xbd5cbbcd	-0.05389004

conv1.bias f4 [16]
0	0x3e39a044	0.18127543
1	0x3dccc3d3	0.09998288
2	0x3da8f745	0.08250288
3	0x3bf80321	0.0075687324
4	0xbe20e11a	-0.1571087
5	0xbe473dcb	-0.19457166
6	0xbe66fa25	-0.2255636
7	0x3e24b5fa	0.16085044
8	0xbd1f5ef3	-0.03890891
9	0xbe153a73	-0.14573078
10	0xbd70f053	-0.05882294
11	0xbe4fc66d	-0.20290537
12	0x3e85bb8c	0.2611965
13	0x3e488a7c	0.19584078
14	0x3e2def4b	0.16985814
15	0xbdfade35	-0.12249414

bn1.weight f4 [16]
0	0x3f851fec	1.0400367
1	0x3f860c1a	1.0472443
2	0x3f6c912b	0.9240901
3	0x3f921052	1.141123
4	0x3f848ff4	1.0356431
5	0x3f90044b	1.125131
6	0x3f842d5f	1.0326346
7	0x3f4aba48	0.7919049
8	0x3f83e706	1.0304878
9	0x3f8af5de	1.0856283
10	0x3f70ddce	0.9408845
11	0x3f929596	1.14519
12	0x3f745c3c	0.9545324
13	0x3f69aa81	0.91275793
14	0x3f792f04	0.97337365
15	0x3f561628	0.8362756

bn1.bias f4 [16]
0	0x3cb87558	0.022516891
1	0xbe01294e	-0.12613413
2	0xbddcb2f4	-0.1077632
3	0xbca651f6	-0.020302754
4	0x3d922f46	0.07137923
5	0x3e0f0814	0.13967925
6	0xbe19fab3	-0.1503704
7	0xbde9f98a	-0.11424549
8	0xbddee56b	-0.10883602
9	0xbd59ccd5	-0.05317386
10	0xbe20a1c8	-0.15686715
11	0x3dcc33c8	0.09970814
12	0xbca5c7fd	-0.020236963
13	0xbe17df2e	-0.1483123
14	0x3e330631	0.1748283
15	0xbe20dd3b	-0.15709393

bn1.running_mean f4 [16]
0	0x3e33f01e	0.17572066
1	0x3de52b59	0.111899085
2	0x3da0b1ac	0.07846388
3	0x3c48ec7c	0.0122634135
4	0xbe2d6b1a	-0.16935387
5	0xbe44dc7f	-0.19224738
6	0xbe6d385e	-0.23166034
7	0x3e328a8b	0.17435662
8	0xbd05199a	-0.03249512
9	0xbe1c136f	-0.15241788
10	0xbd5c4c3f	-0.05378365
11	0xbe5a6306	-0.21326837
12	0x3e88a0d4	0.26685202
13	0x3e417c9d	0.18895192
14	0x3e271833	0.16317825
15	0xbdd61fd4	-0.104552895

bn1.running_var f4 [16]
0	0x3d8ff3f0	0.07028949
1	0x3eab9ab3	0.33516464
2	0x3e12e22e	0.14344093
3	0x3eb54d64	0.35410607
4	0x3ea89124	0.32923234
5	0x3dfb9854	0.12284914
6	0x3de5b614	0.11216369
7	0x3e579761	0.2105384
8	0x3d60c121	0.054871682
9	0x3e9128ec	0.28351533
10	0x3eb4d6ca	0.3532012
11	0x3ec4d5d9	0.38444403
12	0x3e6b04f4	0.22951108
13	0x3d27dabe	0.040980093
14	0x3e1752e6	0.14777717
15	0x3f1d089c	0.6134126

conv2.weight f4 [32, 16, 3, 3]
0	0x3b8bcdd0	0.004266478
1	0xbda88c8b	-0.082299314
2	0xbcd01312	-0.025399718
3	0xbdc07702	-0.09397699
4	0x3ca815f0	0.020518273
5	0xbd2fda77	-0.042932954
6	0xbc854b0e	-0.01627114
7	0xbd6733c0	-0.056445837
8	0x3d38858e	0.045049243
9	0x3cb201b8	0.021729335
10	0xbdcc56da	-0.09977503
11	0x3dc730f7	0.09726136
12	0x3d8dc842	0.06922962
13	0xbd956553	-0.07294717
14	0x3c0089c4	0.007845346
15	0xbb98d2f1	-0.004663818
16	0x3b0ecea8	0.0021790657
17	0xbde34ad0	-0.11098254
18	0xbd91f013	-0.07125869
19	0xbd168603	-0.036748897
20	0xbb43457c	-0.0029796055
21	0x3dc305af	0.095225684
22	0x3cd654d8	0.026163504
23	0x3d60bad7	0.054865684
24	0xbcc4238e	-0.023942735
25	0xbd7a85a7	-0.061162617
26	0x3ca003ad	0.019533003
27	0xbdabc250	-0.083866715
28	0xbe07eeb6	-0.13274655
29	0xbd227bb9	-0.039668772
30	0xbcf17b89	-0.029477851
31	0x3d8c0c96	0.06838338
32	0xbc2860e5	-0.010277008
33	0x3e5b2621	0.21401264
34	0x3eae9fa5	0.34106174
35	0x3e2e0a22	0.16996053
36	0x3a8a2366	0.0010539114
37	0xbd76619b	-0.060151678
38	0x3d3bdc8a	0.04586462
39	0xbd133225	-0.035936493
40	0x3d37c702	0.044867523
41	0x3b187000	0.0023260117
42	0x3e69be89	0.2282659
43	0x3e71af4f	0.23602031
44	0xbd4f172c	-0.050559208
45	0xbcd02c26	-0.025411677
46	0xbdbb03ac	-0.0913156
47	0x3cc59a16	0.024121325
48	0xbcfcbc2c	-0.030851446
49	0xbd10bac3	-0.03533436
50	0xbd050eb2	-0.032484718
51	0x3dbb1251	0.09134353
52	0x3dcf098f	0.10109245
53	0x3c54df68	0.012992717
54	0xbe2f55b2	-0.17122534
55	0xbddbb9a0	-0.107287645
56	0xbdf6e44d	-0.12055264
57	0xbd9d4051	-0.07678283
58	0x3d66bf54	0.05633481
59	0xbca520bf	-0.020157216
60	0xbd52ca4c	-0.051462457
61	0xbc6269dc	-0.013819184
62	0x3c579e48	0.013160296
63	0xbdb3e47b	-0.087838136
64	0x3c3c4d7f	0.011493086
65	0x3b92c500	0.0044790506
66	0x3e014f15	0.12627824
67	0x3dcd0261	0.10010219
68	0x3de7a397	0.11310499
69	0x3d815ac0	0.06316137
70	0xbd8e6da1	-0.06954504
71	0xbd842d7c	-0.06453988
72	0x3d5175df	0.0511378
73	0x3d34e046	0.044159196
74	0xbb10e83b	-0.0022111076
75	0x3c066397	0.008202455
76	0xbbc79526	-0.006090778
77	0x3dc670e8	0.09689504
78	0xbd37d25f	-0.04487836
79	0x3bc95c44	0.006145032
80	0x3ce5639d	0.0280016
81	0xbde38a0b	-0.11110314
82	0xbcf8b72d	-0.030360783
83	0xbe0bce13	-0.1365283
84	0xbd27e909	-0.040993724
85	0x3d6f1c21	0.058376435
86	0xb99a10c1	-0.00029385652
87	0xbda0426d	-0.0782517
88	0xbdf329be	-0.11873196
89	0x3c4ad56f	0.012379988
90	0xbda102ce	-0.07861863
91	0xbd47ad9f	-0.048749562
92	0xbcc5d9e2	-0.024151746
93	0x3c57ac8c	0.013163697
94	0x3d906177	0.0704984
95	0xbcd024eb	-0.025408229
96	0xbc9b412f	-0.01895198
97	0xbdbae62c	-0.09125933
98	0x3ce1f5af	0.027582971
99	0x3dcd6b45	0.10030226
100	0x3da7b8cf	0.08189546
101	0x3dc08afa	0.09401508
102	0x3d188c61	0.03724325
103	0x3e2bd794	0.16781455
104	0x3d0563ac	0.032565758
105	0x3c75f8b1	0.015012906
106	0xbdf983a1	-0.12183309
107	0xbd6d0668	-0.057867438
108	0x3d1aa650	0.037756264
109	0x3d97b5c2	0.074077144
110	0x3dd9b354	0.10629907
111	0x3d36a0e9	0.04458705
112	0x3d1e9892	0.03871972
113	0x3d578d59	0.052625034
114	0xbd5b0f94	-0.053481653
115	0x3d21785b	0.03942142
116	0xba9f0ae3	-0.0012133982
117	0xbdbcab62	-0.09212376
118	0xbd1a4364	-0.037661925
119	0xbd44e428	-0.04806915
120	0x3dd38a8f	0.10329162
121	0x3e4c8084	0.199709
122	0x3e2089d2	0.15677574
123	0xbb3e321c	-0.0029021567
124	0x3e1e7330	0.15473628
125	0x3c00bda5	0.007857715
126	0xbca9d197	-0.020729823
127	0xbe0099e7	-0.12558709
128	0x3c339eba	0.010963136
129	0xbd8e6c8c	-0.069542974
130	0xbcea7772	-0.02862141
131	0x3ad621cd	0.0016336978
132	0x3df1a4a1	0.117989786
133	0xbbcc82f7	-0.006241198
134	0xbdb77f63	-0.08959844
135	0xbd4f47d2	-0.050605603
136	0xbcece461	-0.028917493
137	0xbdbbb774	-0.0916585
138	0x3c5df091	0.013546125
139	0xbca39789	-0.019969719
140	0x3d51cf8d	0.051223326
141	0x3c4360f5	0.011924972
142	0x3c9892f1	0.018624755
143	0xbdec773d	-0.115461804
144	0x3bf90114	0.0075990055
145	0x3e4679a8	0.19382346
146	0xbd8b3fe8	-0.067992985
147	0xbd2841b8	-0.0410783
148	0xbcf7f6ac	-0.03026899
149	0xbdae80c8	-0.08520657
150	0xbdb257ad	-0.08708129
151	0x3d63c945	0.055611867
152	0xbb908bf1	-0.0044112136
153	0x3ad42093	0.0016184024
154	0x3cd497fa	0.025951374
155	0xbd640da6	-0.05567708
156	0xbd112628	-0.03543678
157	0xbd2ec683	-0.042669784
158	0xbc6ad5eb	-0.014333229
159	0xbd6a05d5	-0.057134468
160	0x3c105440	0.008809149
161	0xbda650e2	-0.08120896
162	0xbd3c74c8	-0.04600981
163	0xbc2479cd	-0.010038805
164	0x3d28e081	0.04122973
165	0xbd4339f9	-0.04766271
166	0x3bb995b8	0.0056636
167	0x3d32a11c	0.043610677
168	0x3d37b834	0.044853404
169	0xbd94f898	-0.07273978
170	0x3cfdab23	0.030965393
171	0x3d72307c	0.05912827
172	0x3df75dcc	0.12078437
173	0x3db950bc	0.09048602
174	0x3d9b700a	0.07589729
175	0xbd1fd4b2	-0.0390212
176	0x3e064d77	0.13115488
177	0xbd887ab3	-0.06664028
178	0xbd362969	-0.044473086
179	0xbd174312	-0.036929198
180	0x3c9179a4	0.017758198
181	0x3d29bf73	0.041442346
182	0x3daf86e4	0.0857065
183	0x3d4a1968	0.049340636
184	0x3cc9b4b2	0.024622295
185	0x3cde8017	0.027160687
186	0xbd215b50	-0.039393723
187	0xbdadf446	-0.08493857
188	0xbbf512d1	-0.0074790497
189	0x3d77d455	0.06050523
190	0x3c75e8f2	0.015009152
191	0xbbcbb68b	-0.006216829
192	0xbcf6fe2a	-0.030150492
193	0xbd2b6aa4	-0.041849747
194	0x3ddd5c3f	0.1080861
195	0x3df95912	0.12175192
196	0x3dde7b4f	0.10863363
197	0x3d54e4b2	0.051975913
198	0xbdbfed04	-0.09371379
199	0x3bbc2756	0.005741994
200	0x3d12bbda	0.03582368
201	0xbd94689f	-0.072465174
202	0x3d0e30cc	0.034714505
203	0x3d928607	0.0715447
204	0xbd21d553	-0.039510082
205	0xbd89aa22	-0.067219034
206	0xbe61469f	-0.21999596
207	0x3ddf1512	0.10892691
208	0x3ce76808	0.028247848
209	0xbd772a9b	-0.060343366
210	0xbde33931	-0.11094893
211	0x3c0ddb8c	0.008658301
212	0xbc059c1e	-0.008154897
213	0xbe1507d5	-0.14553769
214	0xbe1c0e62	-0.15239862
215	0xbd5c11c9	-0.0537279
216	0x3e0b2ec9	0.13592066
217	0x3db179d3	0.08665814
218	0x3d2d8c7f	0.042370316
219	0x3cdd0a2b	0.026982388
220	0x3d2a3b6c	0.041560575
221	0xbd82c626	-0.0638545
222	0xbd0902d7	-0.033449974
223	0xbe1134bd	-0.14180274
224	0xbe0359e1	-0.12827255
225	0xbd8c2547	-0.068430476
226	0x3d0ebbec	0.034847185
227	0x3d824e3a	0.06362577
228	0xbc8abf9f	-0.016937075
229	0xbd0f8961	-0.035043124
230	0x3cdf6576	0.02727006
231	0xbd8d95a6	-0.06913309
232	0xbdc6d7b5	-0.097091116
233	0xbde42ef3	-0.11141767
234	0xbd8dcc7e	-0.069237694
235	0xbd87b9b2	-0.066272154
236	0x3e1ef078	0.15521419
237	0xbde028d8	-0.1094529
238	0x3c15b325	0.00913695
239	0xbd104112	-0.035218306
240	0xbd6d5e7c	-0.057951435
241	0xbd93b81a	-0.07212849
242	0xbe170c0b	-0.14750688
243	0x3d30a4bc	0.043125853
244	0xbd46987a	-0.048485257
245	0x3cf4ae6e	0.02986833
246	0xbe10ad2c	-0.1412856
247	0xbc8f4806	-0.017490398
248	0xbc9259c5	-0.017865071
249	0x3c8a7619	0.016902016
250	0xbdadad94	-0.08480373
251	0xbd436262	-0.047701247
252	0x3dd4bb6f	0.103873126
253	0x3ac2727b	0.0014835143
254	0xbb207975	-0.0024486457
255	0xbd4c587f	-0.049889084

conv2.bias f4 [32]
0	0xbdb78176	-0.089602396
1	0x3db54fe6	0.0885313
2	0x3ce3b05d	0.027794058
3	0xbdfff222	-0.12497355
4	0xbd1e1fec	-0.03860466
5	0xbe1b30cc	-0.15155333
6	0x3e066ff5	0.13128646
7	0x3d3c9d63	0.046048533
8	0x3db6e666	0.08930664
9	0xbde116c5	-0.10990671
10	0x3e17f32f	0.14838861
11	0xbd2e11c9	-0.04249743
12	0x3dae08cf	0.08497774
13	0x3d00d4d8	0.031452984
14	0xbc160d33	-0.00915842
15	0x3d605b6e	0.054774694
16	0xbd1d9689	-0.03847364
17	0x3d13a5c4	0.03604676
18	0x39d7938c	0.00041117927
19	0xbc903e80	-0.017607927
20	0xbd451fa1	-0.048125867
21	0xbd67dc78	-0.05660674
22	0x3d865016	0.06558244
23	0x3b544c76	0.0032394207
24	0xbd0ee78e	-0.034888797
25	0xbe0aa51e	-0.1353955
26	0xbd1b1bda	-0.03786836
27	0xbcf48ca8	-0.029852226
28	0xbd5ba2da	-0.053622104
29	0x3d5d3384	0.054004207
30	0xbdb94847	-0.09046989
31	0x3bd2368b	0.0064151934

bn2.weight f4 [32]
0	0x3f922826	1.1418502
1	0x3f8671d7	1.0503491
2	0x3f659ac2	0.89689267
3	0x3f724055	0.9462941
4	0x3f7fe2e0	0.9995556
5	0x3f5cd0a9	0.8625589
6	0x3f7fd3a7	0.9993233
7	0x3f951288	1.164628
8	0x3f8e1722	1.110081
9	0x3f5f1a02	0.8714906
10	0x3f5e9dbd	0.8695944
11	0x3f79cbea	0.97576773
12	0x3f4e151d	0.80500966
13	0x3f72c5f8	0.94833326
14	0x3f87aa13	1.0598778
15	0x3f994cc7	1.1976556
16	0x3f7fd69e	0.99936855
17	0x3f7bbcf1	0.98335177
18	0x3f73426b	0.9502322
19	0x3f888378	1.0665121
20	0x3f6ad9f5	0.91738826
21	0x3f7dc3af	0.99126714
22	0x3f629753	0.8851215
23	0x3f8a36ea	1.0798008
24	0x3f7dad34	0.9909241
25	0x3f8cfb34	1.1014161
26	0x3f674834	0.9034455
27	0x3f80571b	1.0026582
28	0x3f84e1c5	1.0381399
29	0x3f78a5c5	0.97127944
30	0x3f79ad57	0.9753012
31	0x3f7d3f06	0.9892429

bn2.bias f4 [32]
0	0xbcb9a698	-0.022662446
1	0xbdaa3b59	-0.08312101
2	0xbd05d3ae	-0.032672577
3	0xbdc59dfe	-0.09649275
4	0xbd22c737	-0.039740767
5	0xbdc1cb80	-0.09462643
6	0xbd85e646	-0.06538062
7	0x3d48acce	0.048992924
8	0xbdb635b5	-0.088969626
9	0xbe1325bd	-0.14369865
10	0xbe2985ae	-0.16554901
11	0xbcb2a4b8	-0.02180706
12	0xbe56b999	-0.20969237
13	0xbd372893	-0.04471643
14	0x3da255e9	0.07926542
15	0x3b0d480e	0.002155784
16	0xbe37473f	-0.17898272
17	0xbe04ca2c	-0.12967747
18	0xbe0e890b	-0.13919465
19	0xbe35040c	-0.17677325
20	0xbd947e6f	-0.07250678
21	0xbd4e0e2f	-0.050306495
22	0xbd4516ac	-0.048117325
23	0xbdb52236	-0.08844416
24	0xbe896971	-0.26838258
25	0xbe05ee05	-0.13079078
26	0xbd9c9a98	-0.07646674
27	0x3e216f22	0.1576505
28	0xbd81de0d	-0.06341181
29	0xbe172313	-0.14759474
30	0xbdd67eaf	-0.10473382
31	0xbd64910d	-0.055802394

bn2.running_mean f4 [32]
0	0x3e63e892	0.22256687
1	0xbedbb336	-0.42910165
2	0x3fbe9b60	1.4891167
3	0xbf2099dd	-0.62734777
4	0x3f99e400	1.2022705
5	0xbdff0fd7	-0.12454193
6	0x3ebc5c43	0.3678914
7	0x3e550777	0.20803629
8	0x3ea5521b	0.32289204
9	0x3f0ca072	0.5493232
10	0xbe76f910	-0.24118447
11	0xbf758826	-0.9591087
12	0x3fba3977	1.4548787
13	0xbee22e5c	-0.44175994
14	0xbe8b6b5d	-0.2723035
15	0xbe5340c7	-0.2063018
16	0xbe2c6e31	-0.1683891
17	0xbf2ca315	-0.67436343
18	0xbeec950d	-0.46207467
19	0xbf0f91b2	-0.5608169
20	0x3f725bf8	0.94671583
21	0xbece18ea	-0.40253383
22	0xbe578a93	-0.21048956
23	0x3e32b029	0.17450012
24	0x3e6c83be	0.2309713
25	0xbf2ccd0a	-0.67500365
26	0xbece4e5a	-0.40294152
27	0xbeffb991	-0.49946263
28	0xbf50594e	-0.8138627
29	0x3e217998	0.1576904
30	0xbebdf141	-0.37098125
31	0xbfc9594e	-1.5730379

bn2.running_var f4 [32]
0	0x4013b1d4	2.3077288
1	0x402915c7	2.6419542
2	0x4027828e	2.6173434
3	0x40132bbd	2.2995446
4	0x401c38ce	2.440967
5	0x3f65acaf	0.8971662
6	0x3fdfc53d	1.7482067
7	0x40127d5f	2.288902
8	0x3ff4c6d1	1.9123174
9	0x3f7f9136	0.9983095
10	0x3ff31745	1.8991476
11	0x3f72b75a	0.9481102
12	0x408e70e2	4.4512796
13	0x3ff6adb6	1.9271762
14	0x3fc30d6c	1.5238471
15	0x3ffd9cca	1.9813473
16	0x3fbfd230	1.4986019
17	0x3f853662	1.0407221
18	0x3fa89dbc	1.3173137
19	0x401f4f2d	2.4892075
20	0x3fe2da6e	1.772291
21	0x3fa717ac	1.3054099
22	0x3f7500ed	0.9570454
23	0x402adf42	2.6698766
24	0x3fef3398	1.868762
25	0x401fba4d	2.495746
26	0x400f626c	2.2403822
27	0x400289d5	2.0396626
28	0x3faa879e	1.3322637
29	0x3fd65785	1.6745459
30	0x3fa5be3d	1.2948681
31	0x402f4172	2.7383695

conv3.weight f4 [32, 32, 3, 3]
0	0xbc057991	-0.0081466595
1	0x3d94de94	0.07269016
2	0xbd6aa76c	-0.057288572
3	0xbdde9261	-0.10867763
4	0x3de3b70b	0.11118897
5	0x3e31d8d5	0.17367871
6	0xbe2ae7c8	-0.1668998
7	0x3cc47ffa	0.023986805
8	0x3cca1f92	0.024673257
9	0xbd03d58c	-0.032186076
10	0x3c23e5c2	0.010003509
11	0x3d01fb51	0.031733815
12	0x3d73467a	0.059393384
13	0x3ca0fe39	0.019652473
14	0xbd1ec6ef	-0.038763937
15	0xbd8b98b4	-0.06816235
16	0xbce39e73	-0.027785515
17	0x3cc14935	0.023594478
18	0xbc819a00	-0.015820503
19	0xbc3760b9	-0.011192494
20	0x3cf0095e	0.029301342
21	0x3d0a090c	0.033700034
22	0x3bfdb0ee	0.007742039
23	0x3d9ba801	0.076004036
24	0xbd0df04c	-0.034652993
25	0xbc423ab0	-0.0118548125
26	0xbda4ee1e	-0.0805323
27	0xbd81f668	-0.063458264
28	0xbe054fdb	-0.13018744
29	0xbc123d36	-0.008925727
30	0x3ca9e93a	0.020741094
31	0xbcf3f05c	-0.029777698
32	0x3dd1e386	0.10248475
33	0xbe1c4218	-0.15259588
34	0xbdab7105	-0.08371166
35	0x3d1eb6c5	0.03874852
36	0x3cbca680	0.023028612
37	0x3ded7174	0.11593905
38	0x3de2929c	0.1106312
39	0x3d0313dc	0.03200136
40	0x3d8b99a2	0.068164125
41	0x3cf666b9	0.030078279
42	0x3dd239d7	0.10264938
43	0x3dfc9f99	0.12335128
44	0x3d349184	0.044084087
45	0x3be8e3c6	0.007107231
46	0x3db413dd	0.08792851
47	0x3d021d87	0.03176644
48	0x3dc50d5c	0.09621689
49	0xbc439afc	-0.011938807
50	0x3cb0fca5	0.021604845
51	0x3d958963	0.07301595
52	0xbb680235	-0.0035401706
53	0x3bb8157b	0.005617795
54	0x3d348fbd	0.044082392
55	0xbca69cb3	-0.020338392
56	0x3db5dc71	0.088799365
57	0xbd6ba3b4	-0.057529166
58	0x3c06dbc4	0.008231107
59	0xbce605d9	-0.02807896
60	0x3d96514a	0.073397234
61	0xbcdb27be	-0.026752349
62	0x3d642ce5	0.055706877
63	0xbd7e97fe	-0.06215667
64	0xbe2b8609	-0.16750349
65	0xbd12eec4	-0.035872236
66	0x3d531021	0.051529054
67	0x3c19e6d5	0.009393414
68	0x3df3018b	0.11865529
69	0xbe104e5f	-0.14092396
70	0x3ccf4425	0.025301049
71	0x3d7f42bb	0.0623195
72	0xbdba5c66	-0.09099655
73	0x3c1db291	0.009625093
74	0x3b954106	0.0045548705
75	0x3c30be7b	0.010787602
76	0xbd8692dd	-0.06570981
77	0x3dceb4a1	0.10093046
78	0xbde6b2ec	-0.112645954
79	0x3d37f676	0.044912778
80	0x3e21bd87	0.15794955
81	0x3da5681c	0.08076498
82	0x3c555bdb	0.013022388
83	0xbd55704d	-0.05210905
84	0x3e3b8030	0.18310618
85	0x3c02f1b2	0.007992195
86	0xbd766ddc	-0.060163364
87	0x3d443d75	0.047910172
88	0x3d12d7fe	0.035850517
89	0xbca59095	-0.020210544
90	0xbb4482ef	-0.002998527
91	0x3c886943	0.016651755
92	0xbd0d94ba	-0.034565665
93	0xbd9d0a69	-0.07668001
94	0x3af229d9	0.0018475606
95	0x3de4e9ee	0.11177431
96	0x3c80b872	0.01571295
97	0x3d62c8a4	0.055367127
98	0x3baf459a	0.0053488733
99	0x3baab35f	0.005209371
100	0x3c32a772	0.01090418
101	0xbd17d64b	-0.0370696
102	0xba8cb548	-0.0010735178
103	0x3cf64f4e	0.030067112
104	0x3d85eae6	0.06538944
105	0x3c2ebfcc	0.010665845
106	0x3db2f38c	0.08737859
107	0x3dd8c508	0.10584456
108	0x3d2ec43a	0.042667605
109	0x3e26fc33	0.16307144
110	0x3d9af432	0.07566108
111	0x3d7718b2	0.060326286
112	0xbdaa5682	-0.08317281
113	0xbc684fcd	-0.014179182
114	0xbc6bb08d	-0.014385355
115	0x3d840879	0.064469285
116	0xbbc26913	-0.005932936
117	0xbde87969	-0.11351282
118	0xbbb586b9	-0.005539742
119	0xbd1d0137	-0.038331237
120	0xbcf08bb6	-0.029363494
121	0xbd9f9da5	-0.0779374
122	0x3c83bdd4	0.016081728
123	0x3d1899c1	0.037256006
124	0xbcdc6b24	-0.026906557
125	0x3dbf5553	0.09342446
126	0xbd293fbb	-0.041320544
127	0xbdb86f7d	-0.0900564
128	0x3d7aaf44	0.061202303
129	0x3c43887c	0.011934396
130	0xbe0a6069	-0.1351334
131	0xbd815138	-0.06314319
132	0xbdb1598e	-0.08659659
133	0xbdc4c56b	-0.09607967
134	0xbdabdcb0	-0.08391702
135	0xbdaa9cfb	-0.08330723
136	0xbe0b6357	-0.13612114
137	0x3cfc94c1	0.03083265
138	0x3d1d2ad1	0.03837091
139	0xbcf62aad	-0.030049646
140	0x3b60234e	0.003420073
141	0xbe431e4e	-0.19054529
142	0xbd85522c	-0.06509814
143	0xbe1a3720	-0.15060091
144	0x3cb2a785	0.021808395
145	0x3e29f063	0.16595607
146	0xbcad6ce7	-0.021170093
147	0x3d82478c	0.06361303
148	0x3e00370b	0.12520997
149	0x3dc29dcf	0.09502756
150	0xbb6e3291	-0.0036346058
151	0x3d82a733	0.06379547
152	0x3c80ea86	0.01573683
153	0x3d10349e	0.03520643
154	0x3d363636	0.044485293
155	0xbd6e8240	-0.058229685
156	0x3d7fd75e	0.06246125
157	0xbc0ff6b2	-0.008786844
158	0xbd9d7445	-0.07688192
159	0x3d8560ad	0.0651258
160	0x3ccfc015	0.025360147
161	0xbdbe9a2f	-0.09306752
162	0x3c51f9e0	0.0128159225
163	0xbce754e7	-0.028238727
164	0x3d9b79e5	0.07591609
165	0xbd5d7388	-0.054065257
166	0x3c1bbc38	0.009505324
167	0x3da705f9	0.08155436
168	0x3cc462f7	0.023972971
169	0x3d4d7782	0.0501628
170	0x3cfc2073	0.030777192
171	0xbd39365b	-0.045217853
172	0xbd873452	-0.06601776
173	0xbb46b48a	-0.0030320012
174	0xbc5dd21a	-0.013538862
175	0xbd4ff0dc	-0.05076681
176	0xbcbd4b17	-0.023107095
177	0xbe35f4a8	-0.1776911
178	0x3ca6d1ea	0.020363767
179	0xbdcbc142	-0.099489704
180	0x3c1ba683	0.009500149
181	0x3c7880df	0.015167444
182	0x3da31898	0.07963675
183	0x3dec2dc5	0.11532167
184	0x3d870509	0.06592757
185	0xbcba83b3	-0.022767877
186	0x3d8d945e	0.069130644
187	0x3c5d8c53	0.013522225
188	0x3cf02e7d	0.029319042
189	0xb8d9f7bc	-0.000103935105
190	0x3d950a4f	0.07277357
191	0x3e5215e4	0.20516163
192	0x3d4eeabb	0.050516825
193	0xbd6be831	-0.05759448
194	0x3d1be306	0.038058303
195	0xbcc437dc	-0.023952417
196	0x3d0f5475	0.034992654
197	0x3ddb77b5	0.10716192
198	0x3bf2490c	0.007393962
199	0x3ca7adcd	0.020468617
200	0x3c58683e	0.013208447
201	0xbca04856	-0.019565742
202	0x3d560ec7	0.052260187
203	0xb9ffccc3	-0.0004878995
204	0x3b818fe6	0.0039539216
205	0x3e082249	0.13294329
206	0xbd51cc65	-0.051220316
207	0x3d60befc	0.054869637
208	0xbcbc0273	-0.022950387
209	0x3d58b33b	0.052905302
210	0x3d0f0875	0.034920175
211	0x3d0a929c	0.033831224
212	0xbd782766	-0.06058445
213	0x3e0499f2	0.1294935
214	0x3df3f25f	0.11911463
215	0x3e077c87	0.13231097
216	0xbd2fedea	-0.042951502
217	0x3d7e8044	0.062134042
218	0x3d2a1880	0.04152727
219	0x3c19dd1e	0.009391097
220	0x3d420e2e	0.047376804
221	0x3dbdba77	0.09264081
222	0xb95d41ad	-0.00021100669
223	0x3dff5fc1	0.124694355
224	0x3dc67bcb	0.096915804
225	0x3e3210f4	0.1738928
226	0x3e1966e4	0.14980656
227	0xbcd07d64	-0.025450416
228	0x3d9fa9aa	0.07796033
229	0xbc47f5fa	-0.0122046415
230	0x3da1fe01	0.079097755
231	0x3dacbeb7	0.084348135
232	0xbd82c984	-0.06386092
233	0x3d57f84f	0.05272704
234	0x3da89905	0.08232311
235	0x3de3ee51	0.111294396
236	0xbb4ec0b7	-0.0031547972
237	0x3d878852	0.06617798
238	0xbd435412	-0.047687598
239	0xbcc71a93	-0.024304664
240	0x3d34200f	0.043975886
241	0xbd3d4ed4	-0.046217754
242	0x3dde07bd	0.1084132
243	0x3c2d30ac	0.010570686
244	0xbd27e47c	-0.040989384
245	0x3bac2924	0.005253928
246	0xbb92e177	-0.004482444
247	0xbdbae43d	-0.09125564
248	0xbd521619	-0.051290605
249	0x3cc5884e	0.024112847
250	0x3cf30e59	0.029669927
251	0xbdabf366	-0.08396034
252	0x3ac6fe88	0.0015182057
253	0x3ce03e26	0.027373385
254	0x3c82fde5	0.015990207
255	0x3ccd5f68	0.025069907

conv3.bias f4 [32]
0	0x3cd77cff	0.02630472
1	0x3cf0c11c	0.029388957
2	0xbd0c23a4	-0.034213677
3	0xbd2123ad	-0.039340664
4	0xbcd75a6a	-0.02628823
5	0xbd166588	-0.03671792
6	0x3d30dc73	0.043178987
7	0x3d3a55af	0.04549187
8	0xbd53095b	-0.051522594
9	0xbd233c39	-0.039852355
10	0xbd0efe03	-0.034910213
11	0xbd5507f8	-0.052009553
12	0x3d53f512	0.05174739
13	0x3c8372dd	0.016045982
14	0x3d19f5cd	0.03758793
15	0xbcc14884	-0.023594148
16	0x3cebcb86	0.028783571
17	0xbd042e7d	-0.032270897
18	0xbd8bde1f	-0.068294756
19	0xbc0773f8	-0.008267395
20	0x3d8e7728	0.06956321
21	0x3c87ddc4	0.016585238
22	0xbd21c549	-0.039494786
23	0xbd620190	-0.05517727
24	0xbcdccb22	-0.02695233
25	0xbd8cfc5c	-0.06884071
26	0x3c3c2687	0.011483795
27	0xbc7d9a26	-0.015478646
28	0xbd3af29d	-0.04564153
29	0x3d727148	0.059190065
30	0xbcbb1bb2	-0.022840355
31	0x3ccb284e	0.024799492

bn3.weight f4 [32]
0	0x3f696bd8	0.9118018
1	0x3f6ee069	0.9331117
2	0x3f5f0e62	0.8713132
3	0x3f87bdfc	1.0604854
4	0x3f878c5e	1.0589712
5	0x3f8ac928	1.0842638
6	0x3f8ace4f	1.084421
7	0x3f939941	1.1531144
8	0x3f781732	0.96910393
9	0x3f5aca52	0.85464966
10	0x3f7e26aa	0.99277747
11	0x3f6fdbe4	0.936949
12	0x3f812726	1.0090072
13	0x3f805f1e	1.0029027
14	0x3f7fdc3f	0.99945444
15	0x3f628dd2	0.8849765
16	0x3f79094c	0.9727981
17	0x3f6ffd48	0.9374585
18	0x3f745c24	0.95453095
19	0x3f7c4a9e	0.98551357
20	0x3f7b115c	0.98073363
21	0x3f864623	1.0490154
22	0x3f79bb28	0.975512
23	0x3f8e7584	1.1129613
24	0x3f8fa6a5	1.1222731
25	0x3f8c42ac	1.0957847
26	0x3f6e3edd	0.9306467
27	0x3f732b3a	0.94987833
28	0x3f96fc1c	1.1795688
29	0x3f7471de	0.9548625
30	0x3f8d5e8c	1.1044478
31	0x3f630967	0.8868622

bn3.bias f4 [32]
0	0xbe3d4080	-0.18481636
1	0xbc76f5f5	-0.015073289
2	0xbe053b11	-0.13010813
3	0xbb34cb50	-0.0027587004
4	0x3aea046c	0.0017854101
5	0xbd7634ed	-0.060109068
6	0xbd1ddc80	-0.038540363
7	0xbbb02e66	-0.005376625
8	0xbdc24823	-0.09486415
9	0xbe2dd67f	-0.16976355
10	0xbd37997b	-0.044824105
11	0xbcbb8f28	-0.02289541
12	0xbda21d01	-0.07915688
13	0xbda5ddd0	-0.08098948
14	0xbc54686f	-0.012964352
15	0xbe58eb00	-0.21183395
16	0xbdd339ba	-0.10313745
17	0xbd86eaa2	-0.065877214
18	0x3ce92b48	0.02846302
19	0xbd2c108a	-0.04200796
20	0xbdb58382	-0.08862974
21	0xbaad7568	-0.0013233842
22	0xbce52339	-0.027970897
23	0xbd81047a	-0.06299682
24	0x3d29b9e1	0.041437034
25	0xbd53c06d	-0.051697183
26	0xbb87cf30	-0.0041445717
27	0x3d80bf7c	0.06286523
28	0x3a899b3a	0.0010498532
29	0xbe169813	-0.14706449
30	0x3db9c9bb	0.0907168
31	0x3ca0ee0e	0.019644763

bn3.running_mean f4 [32]
0	0x3ff818c2	1.9382555
1	0x3f349cfb	0.70552033
2	0xbf955d43	-1.1669086
3	0x3fc92e32	1.5717223
4	0x3f48239c	0.78179336
5	0xc08af265	-4.342089
6	0xbb3c18ab	-0.0028701227
7	0xbfa29947	-1.2703027
8	0x3e2a17c6	0.16610631
9	0x3e90524a	0.28187782
10	0xbec18e88	-0.37804055
11	0x3edc523d	0.43031493
12	0x3f0358b4	0.51307225
13	0x3e439c49	0.19102587
14	0x3f2b99e8	0.6703172
15	0xbe807fee	-0.25097603
16	0xbf8beb89	-1.0931255
17	0xbe8c149b	-0.2735947
18	0x3f47faef	0.7811727
19	0xbe68af21	-0.22723056
20	0xbfdccb91	-1.7249624
21	0x3ed46fa2	0.4149142
22	0x3f381e26	0.71921
23	0xbfb087a6	-1.3791397
24	0xbf53a164	-0.8266814
25	0x3f699b9c	0.91253066
26	0xc0120e10	-2.2821083
27	0x3e999d97	0.30003044
28	0xc02e8b29	-2.7272437
29	0x3f814c43	1.0101398
30	0x3eb1b069	0.34704903
31	0xbc63b0dc	-0.013897147

bn3.running_var f4 [32]
0	0x40a2a8d3	5.0831084
1	0x403052dd	2.7550576
2	0x4059d8be	3.403854
3	0x40571977	3.3609293
4	0x40601bf2	3.5017056
5	0x40edda59	7.432904
6	0x40a5ace7	5.1773562
7	0x4068c27f	3.636871
8	0x40baa03e	5.832061
9	0x4054ea22	3.3267903
10	0x40b6cf1d	5.7127824
11	0x40355270	2.8331566
12	0x40b0b811	5.522469
13	0x40814eca	4.040868
14	0x404bb315	3.1828053
15	0x40174cc6	2.3640609
16	0x407da48e	3.9631686
17	0x40904fe5	4.5097528
18	0x404a539e	3.1613536
19	0x4076c6c9	3.855883
20	0x40175112	2.3643231
21	0x40ac8b08	5.3919716
22	0x403ba23d	2.9317772
23	0x409a0513	4.8131194
24	0x4076647a	3.8498826
25	0x4087c032	4.2422113
26	0x40e19d50	7.050453
27	0x409bf3d3	4.8735137
28	0x41143b88	9.264534
29	0x403eac2a	2.979258
30	0x4082130c	4.064825
31	0x40543ba3	3.31614

classifier.0.weight f4 [32, 288]
0	0xbd148ae4	-0.03626527
1	0x3c718ce8	0.014743067
2	0x3c755fd0	0.014976457
3	0x3da5cf28	0.080961525
4	0xbd2f8422	-0.04285062
5	0xbc37af25	-0.011211191
6	0xbce3e750	-0.02782026
7	0xbdb62e0c	-0.088955015
8	0x3c041cb1	0.008063481
9	0x3cca6d0e	0.024710204
10	0x3dc24e64	0.09487608
11	0xbc3a9c82	-0.011389853
12	0xbda41d0b	-0.08013352
13	0xbdadab99	-0.08479995
14	0x3d78b3e5	0.060718436
15	0x3d7f2f22	0.06230081
16	0xbe1cacfc	-0.15300363
17	0xbd30a797	-0.043128576
18	0xbdd81523	-0.105509065
19	0xbc9f886a	-0.019474227
20	0xbc37c083	-0.011215332
21	0x3d640e0c	0.05567746
22	0x3cb43c88	0.02200152
23	0xbd17b686	-0.037039302
24	0xbd05ef85	-0.032699127
25	0x3d2ddab0	0.042444885
26	0x3de370c0	0.1110549
27	0x3e2c96cb	0.16854398
28	0x3cdf0935	0.02722607
29	0xbd0cd198	-0.03437957
30	0xbcb20669	-0.021731572
31	0xbd82521a	-0.06363316
32	0x3dff27fa	0.12458797
33	0x3cba8509	0.022768514
34	0xbd84d801	-0.06486512
35	0xbc147158	-0.009060226
36	0x3de667df	0.112502806
37	0xbdaa21b6	-0.08307211
38	0x3d29c03f	0.041443106
39	0xbc7525ef	-0.014962657
40	0xbcf26134	-0.029587366
41	0x3c466d98	0.01211109
42	0x3cdb724f	0.026787905
43	0xbe001079	-0.12506284
44	0xbd47b5aa	-0.048757233
45	0x3d804b76	0.06264393
46	0x3cd624b5	0.02614055
47	0x3c9092fe	0.017648216
48	0x3c874b62	0.016515438
49	0x3dd6ab9d	0.104819514
50	0x3c358559	0.011079156
51	0x3c1c7ac9	0.009550759
52	0x3dabcac5	0.083882846
53	0xbc80ed3d	-0.015738124
54	0xbe1e1306	-0.15436944
55	0x3d826e77	0.06368726
56	0xbd1217d7	-0.035667267
57	0xbd6e0d0f	-0.058117922
58	0x3aa7c973	0.0012801125
59	0x3e59cba6	0.21269092
60	0x3e44d809	0.19223036
61	0x3e24eb9a	0.161055
62	0x3e597648	0.21236527
63	0xbd43df31	-0.047820274
64	0x3d30e465	0.043186564
65	0xbd1b0e16	-0.03785523
66	0x3d41ccdf	0.04731452
67	0xbcdfb7b2	-0.027309272
68	0xbd38cbd5	-0.045116264
69	0x3d731260	0.059343696
70	0x3d8711b5	0.06595174
71	0x3dd6a58a	0.10480793
72	0xbc86e43e	-0.016466256
73	0xbce48019	-0.027893113
74	0x3cbc50b9	0.02298771
75	0xbd4181d6	-0.04724296
76	0xbc878dd2	-0.016547117
77	0x3b01bac4	0.001979516
78	0x3da8c964	0.08241537
79	0x3e07992a	0.13242021
80	0x3dcf1adb	0.10112544
81	0x3cedb2fa	0.029016007
82	0xbcbb0558	-0.022829697
83	0xbcd5b3f2	-0.026086781
84	0x3ddeda99	0.10881538
85	0xbc236e6d	-0.009975058
86	0x3d915ff4	0.0709838
87	0xbd45e0d2	-0.04831011
88	0x3dda4353	0.10657372
89	0x3c8e6f67	0.017387105
90	0xbc9180ef	-0.017761676
91	0xbc7f5cdb	-0.015586103
92	0xbcf7e982	-0.030262712
93	0x3d338c24	0.04383482
94	0x3ce02ae6	0.027364206
95	0x3dd4f355	0.103979744
96	0x3cbef79a	0.023311425
97	0x3bfd56cc	0.0077312943
98	0xbd513993	-0.051080298
99	0x3ce8b292	0.028405461
100	0x3a7a26f4	0.00095425476
101	0xbd82b067	-0.06381302
102	0xbd2a917f	-0.041642662
103	0xbc1f9d72	-0.009742128
104	0x3c3f193e	0.011663733
105	0x3d6f4ae8	0.058421046
106	0xbdd1f4d6	-0.10251777
107	0xbd9f7079	-0.07785124
108	0x3df1deab	0.11810049
109	0x3d6bbfce	0.057555966
110	0xbd8b012f	-0.06787335
111	0xbd458be4	-0.048229113
112	0x3adc2dcb	0.0016798315
113	0x3e027ef8	0.12743747
114	0x3d44c8a8	0.048042923
115	0xbe3d6139	-0.18494119
116	0x3c02a868	0.0079747215
117	0xbe3d4ca4	-0.18486267
118	0xbe068533	-0.13136749
119	0xbd31429c	-0.043276414
120	0xbc0ce39a	-0.008599186
121	0xbd76daae	-0.060267143
122	0x3dd07e0c	0.101802915
123	0x3d4ba6a7	0.04971948
124	0xbc9eb2a3	-0.01937229
125	0x3d2a7c75	0.041622598
126	0x3949c1bb	0.00019241024
127	0xbd3a63ba	-0.045505263
128	0xbb262577	-0.002535192
129	0x3c90ef8e	0.017692354
130	0xbdae7321	-0.08518053
131	0xbd285d90	-0.041104853
132	0xbd19fb18	-0.037592977
133	0xbe080912	-0.1328471
134	0x3df9d682	0.12199117
135	0xbcb32fb1	-0.021873327
136	0xbd073311	-0.033007685
137	0x3cc721f3	0.02430818
138	0xbcd365fc	-0.025805466
139	0xbd8202a8	-0.06348163
140	0x3dd17f2e	0.10229336
141	0xbba8dca1	-0.005153254
142	0xbcf63710	-0.030055553
143	0x3dea4375	0.11438648
144	0x3d71ea9f	0.059061643
145	0x3d91c8b8	0.07118362
146	0xbcc11132	-0.02356777
147	0x3dd9b4bb	0.10630175
148	0xbce8057f	-0.028322933
149	0xba9f3be4	-0.0012148586
150	0x3c461d59	0.012091958
151	0x3d6b6460	0.057468772
152	0xbdc6bfd8	-0.0970456
153	0xbcc05e45	-0.023482451
154	0x3d184444	0.03717448
155	0xbd2fec47	-0.04294994
156	0x3d5adcab	0.0534331
157	0x3bdf65de	0.0068175634
158	0x3dc349a9	0.09535534
159	0xbcb75ea8	-0.022384003
160	0xbc9a049e	-0.01880103
161	0x3e28ffbe	0.16503808
162	0xbdb7b265	-0.08969573
163	0xbd5393c1	-0.05165458
164	0xbcb9628f	-0.022630004
165	0x3d7256b1	0.059164707
166	0x3d059b78	0.03261897
167	0xbccd11e2	-0.025032941
168	0x3cdc6d4e	0.02690759
169	0x3d4cbba8	0.04998365
170	0x3e31d7e9	0.1736752
171	0xbcc07e89	-0.023497837
172	0x3b3d06d1	0.0028843174
173	0x3b6ebd4a	0.0036428743
174	0xbb21c5b3	-0.0024684488
175	0x3d779f98	0.060454935
176	0x3d3ddbac	0.046352074
177	0x3dc7ff21	0.09765459
178	0xbd5d63b8	-0.054050177
179	0x3d0c6728	0.034278065
180	0x3d85df7e	0.065367684
181	0x3d13d86c	0.036095068
182	0x3d7636c6	0.06011083
183	0xbd8b849f	-0.06812405
184	0xbcd4cef8	-0.025977597
185	0x3cb83c31	0.022489639
186	0xbd21e84f	-0.039528187
187	0x3e1a944d	0.15095635
188	0x3e04578d	0.12924023
189	0x3d4b98e4	0.049706355
190	0x3d5a16b7	0.05324432
191	0xbd53dc86	-0.05172398
192	0xbe1079d3	-0.14108972
193	0x3daa3102	0.08310129
194	0xbddbe38d	-0.10736761
195	0xb99d6807	-0.0003002288
196	0x3d147235	0.03624173
197	0x3c6cfacc	0.0144640915
198	0x3be767ea	0.007061948
199	0x3dac0ede	0.08401273
200	0x3cb35f48	0.02189602
201	0xbccb907a	-0.024849165
202	0x3cb38579	0.02191423
203	0xbdbfd38e	-0.09366523
204	0x3bacf806	0.00527859
205	0x3d456606	0.048193
206	0xbc0fcb8a	-0.008776555
207	0x3d810e41	0.06301547
208	0xbc32df3c	-0.010917481
209	0x3da22624	0.07917431
210	0x3e1f4f34	0.15557557
211	0x3e038997	0.12845455
212	0x3ce15bab	0.027509531
213	0xbdc28dcf	-0.09499704
214	0x3da0769f	0.07835125
215	0x3e5bec31	0.21476819
216	0x3cbd9cd3	0.023146069
217	0x3d36bf7f	0.04461622
218	0x3bd7d36e	0.0065864837
219	0x3d145fba	0.036224104
220	0xbd6e15f3	-0.0581264
221	0x3d75afc9	0.059982095
222	0x3db193a5	0.08670739
223	0xbb830afa	-0.0039991112
224	0x3db9a7b2	0.090651885
225	0xbbd60c6a	-0.0065322416
226	0x3d19267c	0.037390217
227	0xbdbb5f0f	-0.0914899
228	0xbe3d9008	-0.18511975
229	0x3d0f1bb3	0.034938525
230	0xbd265a17	-0.04061326
231	0x3ba34185	0.004982176
232	0xbdc10bb3	-0.094260596
233	0x3e27bda9	0.16380943
234	0xbb05ca03	-0.0020414598
235	0x3cd6583f	0.026165126
236	0xbc077296	-0.0082670655
237	0xbd17d62c	-0.037069485
238	0x3be8705a	0.0070934715
239	0x3d3a53dd	0.045490135
240	0x3db21c04	0.0869675
241	0xbc8b954f	-0.01703897
242	0x3dc4e200	0.096134186
243	0xbac7a4ee	-0.0015231648
244	0x3cefc329	0.029267864
245	0x3d89924b	0.06717356
246	0xbbd0802c	-0.0063629355
247	0x3b7e06b0	0.003876131
248	0x3d3cd9ec	0.046106264
249	0xbb7f928c	-0.003899726
250	0x3d05fccc	0.03271179
251	0x3dc37bac	0.09545073
252	0xbb33125f	-0.0027324182
253	0x3d5e02cc	0.054201886
254	0x3d08e034	0.03341694
255	0xbc665e39	-0.01406055

classifier.0.bias f4 [32]
0	0x3df555ab	0.119792305
1	0x3ca4760a	0.020075817
2	0x3e0d4954	0.13797504
3	0x3d29289b	0.04129849
4	0x3d907987	0.070544295
5	0x3c390a2b	0.011293928
6	0x3d8cb983	0.06871321
7	0x3c4c8d5c	0.012484875
8	0xbd832e87	-0.06405359
9	0x3dcc384d	0.09971676
10	0x3d33f449	0.04393414
11	0x3d7e1057	0.0620273
12	0x3dac1a42	0.08403446
13	0x3c0817dc	0.00830647
14	0x3e03af5a	0.1285986
15	0xbd9e2c34	-0.07723275
16	0x3d9402c0	0.07227087
17	0x3da70b27	0.08156424
18	0xbc8e911d	-0.01740318
19	0x3d8b278f	0.067946546
20	0x3c76cf41	0.015064062
21	0x3dc28fa8	0.095000565
22	0x3d8989f5	0.06715766
23	0x3af76d8c	0.0018877252
24	0x3cb7638e	0.022386339
25	0x3d89a41d	0.06720755
26	0x3aef6001	0.0018262864
27	0x3ba6d612	0.005091437
28	0xbd6f80db	-0.058472496
29	0x3ce19f6e	0.027541842
30	0x3c6c3319	0.0144164795
31	0xbd76c5ce	-0.060247235

classifier.2.weight f4 [32]
0	0x3fc31307	1.5240182
1	0x3fbd7c60	1.4803581
2	0x3fbbf492	1.4684012
3	0x3fbc5066	1.4712036
4	0x3fb88188	1.441453
5	0x3fb12e1d	1.3842198
6	0x3fc2df73	1.5224441
7	0x3fb8b5c3	1.4430469
8	0x3f7c4b5c	0.9855249
9	0x3fb48dc1	1.410576
10	0x3fbbfd47	1.4686669
11	0x3fb4cb5c	1.412456
12	0x3fb4466a	1.4083989
13	0x3fcb3596	1.5875728
14	0x3fc0f2b8	1.5074072
15	0x3fa1e6b1	1.2648526
16	0x3fbd38e7	1.478299
17	0x3fbcae22	1.4740641
18	0x3f7d99f8	0.9906306
19	0x3fbbf9c0	1.4685593
20	0x3fc14557	1.5099286
21	0x3fbdf7fe	1.4841306
22	0x3fc9aec6	1.5756462
23	0x3f7ff38c	0.99981
24	0x3fd328d6	1.6496837
25	0x3fb6eeb6	1.4291599
26	0x3fb9732f	1.4488276
27	0x3fc821af	1.563528
28	0x3fbea666	1.4894531
29	0x3fb8aaef	1.4427165
30	0x3fbffdad	1.4999291
31	0x3fbec376	1.49034

classifier.2.bias f4 [32]
0	0x3e18af07	0.14910518
1	0xbdc35f26	-0.095396325
2	0x3e40d14e	0.18829843
3	0x3d9f54cc	0.077798456
4	0x3dc38bd4	0.095481545
5	0x3d50a316	0.05093678
6	0x3caa4bca	0.020788092
7	0x3d8f4b07	0.06996732
8	0xbd31743d	-0.043323744
9	0x3d244802	0.040107735
10	0xbd420dc1	-0.047376398
11	0x3d952e9a	0.07284279
12	0x3cf8cc1d	0.030370766
13	0x3ddb611e	0.10711883
14	0x3dc93f9f	0.09826588
15	0x3d885b51	0.06658042
16	0x3df95340	0.12174082
17	0xbd3800bc	-0.044922575
18	0xbc7a6136	-0.015281966
19	0x3b828096	0.003982614
20	0xbbbfe7e2	-0.0058565
21	0x3d1c5139	0.038163397
22	0x3cd4a890	0.025959283
23	0x3dd6f37c	0.1049566
24	0xbc6c0923	-0.014406475
25	0x3c85019e	0.016236123
26	0x3d79da49	0.06099919
27	0xbc4aaa01	-0.012369634
28	0xbdbd3c70	-0.09240043
29	0xbc8360c6	-0.016037356
30	0x3d8f0b60	0.069845915
31	0x3d7232fb	0.05913065

classifier.2.running_mean f4 [32]
0	0x4055cbcf	3.3405645
1	0x3fc35236	1.5259464
2	0x40048759	2.070761
3	0x4048b5e5	3.136102
4	0x40077f89	2.1171591
5	0x3fd4b9b6	1.6619174
6	0x401f1ac4	2.4860086
7	0x4011c1de	2.2774577
8	0x002e8086	4.270538e-39
9	0x40493145	3.1436322
10	0x4040e04e	3.0136905
11	0x404ab248	3.1671314
12	0x405e5d5b	3.474448
13	0x3f9a0cdd	1.2035176
14	0x405d5e56	3.4588828
15	0x25fa438f	4.3413866e-16
16	0x403b0202	2.9219975
17	0x403cbf5c	2.9491796
18	0x00000004	6e-45
19	0x3f62cdc6	0.88595235
20	0x407586fd	3.836364
21	0x3ff0046b	1.8751348
22	0x3fc96c36	1.5736148
23	0x00000000	0.0
24	0x4005f90d	2.0933259
25	0x3fee5ef9	1.8622733
26	0x408fc8bb	4.493253
27	0x40063769	2.097132
28	0x3ff308db	1.8987077
29	0x4027c9ef	2.6217
30	0x4009388e	2.1440768
31	0x3fd7a22a	1.6846364

classifier.2.running_var f4 [32]
0	0x40965594	4.6979465
1	0x40347639	2.8197157
2	0x4054d9ed	3.3258011
3	0x4056498a	3.3482385
4	0x40152ae4	2.3307428
5	0x401b69ae	2.4283252
6	0x4072e054	3.794942
7	0x40357062	2.8349843
8	0x0004f9f9	4.57015e-40
9	0x40371109	2.8604147
10	0x40124f98	2.286108
11	0x40466ece	3.100513
12	0x40887f0c	4.2655087
13	0x3fe4da57	1.7879132
14	0x40a2d2b7	5.088222
15	0x221e28f9	2.1434684e-18
16	0x408fef2a	4.497945
17	0x407c5ed8	3.9432888
18	0x00000055	1.19e-43
19	0x3fb818a7	1.4382523
20	0x4081df2e	4.0584936
21	0x4023b34e	2.557819
22	0x4050c1f1	3.2618372
23	0x00000055	1.19e-43
24	0x4051308d	3.2685883
25	0x4041bd41	3.0271761
26	0x4099272b	4.7860312
27	0x4023cf38	2.5595226
28	0x40279b75	2.6188633
29	0x404cbf2e	3.1991687
30	0x40181d9a	2.3768067
31	0x40110b09	2.2662985

classifier.3.weight f4 [10, 32]
0	0xbdbc6383	-0.09198668
1	0x3dc11bd7	0.09429138
2	0xbebb1814	-0.36541808
3	0xbe02d360	-0.12775946
4	0x3ee5ede2	0.44908053
5	0xbe2e06f7	-0.16994844
6	0x3e88ff1b	0.2675713
7	0xbeb42219	-0.35182264
8	0xbd246831	-0.040138427
9	0xbe078416	-0.1323398
10	0xbec6a105	-0.38794723
11	0xbed3a3c6	-0.41335887
12	0x3e0d6cfb	0.13811104
13	0xbeef96e3	-0.46794805
14	0x3e6383c6	0.22218236
15	0xbe9a44fd	-0.3013076
16	0xbeca1bee	-0.39474434
17	0x3ec076eb	0.37590727
18	0xbd72f91f	-0.05931961
19	0x3ee40652	0.44536072
20	0xbd3a0e8a	-0.04542402
21	0xbb3b614c	-0.002859193
22	0xbeb71fe2	-0.35766512
23	0xbe82327c	-0.25429142
24	0x3ea7d9a5	0.32783237
25	0xbe37f7e2	-0.17965654
26	0x3e973c64	0.29538262
27	0x3eb04af6	0.3443219
28	0x3ebcf4fb	0.36905655
29	0xbed7d3e9	-0.42153862
30	0xbee129ef	-0.43977305
31	0x3e8ddde5	0.27708355
32	0x3e680876	0.22659478
33	0x3e81262d	0.25224438
34	0x3e705e9f	0.23473595
35	0xbeadfd3f	-0.33982274
36	0x3e43913d	0.19098373
37	0x3e0ebeae	0.13939926
38	0xbe97221e	-0.29518217
39	0xbec35b4e	-0.38155597
40	0xbdb49f24	-0.08819416
41	0x3dad576d	0.08463941
42	0xbe9eace1	-0.3099127
43	0x3ecec85f	0.40387246
44	0x3c27b417	0.010235808
45	0x3e125610	0.14290643
46	0x3ea9051a	0.33011705
47	0xbe86950d	-0.26285592
48	0xbe98f597	-0.2987487
49	0xbe9697b6	-0.2941262
50	0xbd80a80f	-0.06282055
51	0x3e9e05e5	0.30863872
52	0xbed2cb76	-0.41170853
53	0x3eb4872f	0.35259387
54	0xbeae1d96	-0.34006947
55	0x3e45f3bd	0.1933126
56	0xbe8a6707	-0.2703173
57	0x3ea62f68	0.32458043
58	0xbec5f275	-0.38661543
59	0xbdcd7331	-0.10031737
60	0xbed97fda	-0.42480356
61	0xbecf147d	-0.4044532
62	0xbe9f1735	-0.31072393
63	0xbea57c65	-0.32321468
64	0x3e543fee	0.20727512
65	0xbe01079b	-0.12600558
66	0xbe7bceb3	-0.24590568
67	0xbeaf7d49	-0.34275272
68	0xbea070a9	-0.31335953
69	0xbe9db140	-0.30799294
70	0x3e9aaba4	0.30209076
71	0x3e66c583	0.22536282
72	0x3d423d97	0.047422018
73	0xbd7bb12a	-0.061448254
74	0x3ce893e5	0.028390834
75	0x3ee04677	0.4380376
76	0x3ed126d0	0.40849924
77	0xbe37c973	-0.1794794
78	0x3e917dca	0.28416282
79	0xbe9817e0	-0.29705715
80	0xbecacc2d	-0.396089
81	0xbeb65a32	-0.3561569
82	0xbd347b44	-0.044062868
83	0xbe926610	-0.28593493
84	0x3ebc7138	0.3680513
85	0x3eb6c341	0.35695842
86	0xbebc9bfa	-0.3683775
87	0xbdaf3d57	-0.085566215
88	0xbedffe18	-0.43748546
89	0xbe908e9a	-0.28233796
90	0xbde3cda3	-0.111232065
91	0x3ef708ef	0.48249003
92	0x3e69378c	0.22775096
93	0x3de89971	0.113573916
94	0x3e584685	0.21120651
95	0x3ecde4f2	0.40213734
96	0x3e1f77e5	0.1557308
97	0xbed4f42e	-0.41592544
98	0x3e9b8e49	0.30381992
99	0x3e90b17c	0.2826041
100	0x3ef397fc	0.47576892
101	0xbe6d611f	-0.2318158
102	0xbe9f79ed	-0.3114771
103	0xbeb19c37	-0.34689495
104	0x3c44645b	0.011986817
105	0xbea47abc	-0.3212489
106	0x3cf1c548	0.029513016
107	0x3de998e7	0.11406117
108	0x3eccbc38	0.3998735
109	0x3ecf1cbc	0.4045161
110	0xbdda63ff	-0.10663604
111	0x3e83fdcc	0.2577957
112	0x3ebfd2fa	0.3746565
113	0x3e56d6be	0.20980355
114	0xbe1f97db	-0.15585272
115	0xbe7f1124	-0.24908882
116	0x3e9b00ac	0.3027395
117	0x3e21d587	0.1580411
118	0xbef2d277	-0.47426197
119	0xbd4405f4	-0.04785724
120	0xbec7e5cf	-0.39042518
121	0xbe8b26f5	-0.2717816
122	0xbdd1cdaf	-0.10244309
123	0xbebf4c6e	-0.37363
124	0x3ed3fc06	0.41403216
125	0x3e0081b9	0.12549485
126	0x3ecbd3d6	0.39810055
127	0xbea56836	-0.3230607
128	0xbeb268e2	-0.34845644
129	0x3ed1004a	0.40820533
130	0xbe77b4a5	-0.24190004
131	0x3e432807	0.19058238
132	0xbecb8887	-0.397526
133	0xbdbd1886	-0.09233193
134	0xbee31314	-0.44350493
135	0x3eea036c	0.45705736
136	0x3e309ff3	0.17248516
137	0x3e335e85	0.17516525
138	0xbe2dc6b6	-0.16970333
139	0xbd048e9d	-0.03236257
140	0x3d42b45d	0.04753529
141	0xbe05bdf6	-0.13060746
142	0x3e5ac91d	0.21365781
143	0xbe85790e	-0.2606892
144	0x3e9cbdf3	0.3061367
145	0x3e87def5	0.2653729
146	0xbde54637	-0.11195033
147	0xbe34524f	-0.17609523
148	0xbedc3e59	-0.43016317
149	0xbecd058a	-0.40043288
150	0x3e38d83a	0.18051234
151	0xbdbe68bb	-0.092973195
152	0xbee98c53	-0.4561487
153	0xbe0f41c4	-0.13989931
154	0xbe611b6c	-0.21983117
155	0x3e98361c	0.29728782
156	0xbeb6e4cd	-0.35721436
157	0xbe0ea951	-0.13931777
158	0xbe1bd9ee	-0.15219852
159	0xbeb77e48	-0.35838532
160	0x3eabb16e	0.33533806
161	0x3e9180ee	0.28418678
162	0x3ea1cbda	0.3160084
163	0xbe829e6a	-0.25511485
164	0xbdb83b3b	-0.08995672
165	0x3de24bd7	0.110496216
166	0x3ec90280	0.3925972
167	0xbe11e1ab	-0.14246242
168	0xbda04c55	-0.07827059
169	0xbebd5910	-0.36982012
170	0x3e935075	0.2877232
171	0xbee8dfaf	-0.45483157
172	0xbd37fe6e	-0.044920377
173	0x3eab9119	0.33509138
174	0xbe5e9b90	-0.2173903
175	0xbe307d0b	-0.172352
176	0x3e81e69a	0.25371248
177	0x3e85cc1f	0.26132295
178	0x3d871207	0.06595235
179	0xbea29113	-0.31751308
180	0x3d90ea77	0.070759706
181	0x3e840a30	0.25789022
182	0x3e8972e9	0.26845482
183	0xbdda42a3	-0.10657241
184	0x3ed7c399	0.42141417
185	0x3e3beff1	0.18353249
186	0xbcda549e	-0.026651677
187	0xbebe6bd8	-0.37191653
188	0xbdc77346	-0.097387835
189	0x3ed2f4f2	0.41202503
190	0xbeb2e39c	-0.34939277
191	0xbeb07fc3	-0.34472474
192	0x3e4909a0	0.19632578
193	0x3ed347c9	0.41265705
194	0xbe5329c6	-0.20621404
195	0x3ec031bd	0.37537947
196	0xbe9908ae	-0.29889435
197	0xbeaa75cf	-0.33293006
198	0x3edcd07f	0.4312782
199	0xbed16fe6	-0.40905684
200	0x3d8e1b9e	0.06938861
201	0x3e876271	0.26442292
202	0x3e065ff2	0.13122538
203	0x3d9c7ec0	0.07641363
204	0xbec63f09	-0.38719967
205	0xbeb65005	-0.35607925
206	0x3e9fdf9a	0.31225282
207	0xbe900f2f	-0.28136584
208	0x3d536822	0.05161298
209	0xbea2fda8	-0.3183415
210	0x3e295606	0.16536722
211	0x3ec1934e	0.37807697
212	0xbe8de08e	-0.27710384
213	0x3ec2cea7	0.38048288
214	0x3ee82d13	0.4534689
215	0x3b97fef8	0.004638549
216	0x3e993fe9	0.29931572
217	0xbeb94dc8	-0.36192155
218	0xbea554dc	-0.32291305
219	0xbea0f15d	-0.31434146
220	0x3eddfcd4	0.43356955
221	0xbe8ddd48	-0.27707887
222	0x3e1f031b	0.15528528
223	0xbd6ca042	-0.05777002
224	0xbea2553e	-0.3170566
225	0xbebd4e25	-0.36973682
226	0xbe9409e6	-0.28913802
227	0xbebb92ae	-0.36635345
228	0xbc18e89a	-0.0093328
229	0x3ec70ef5	0.388786
230	0xbe9a59a3	-0.30146512
231	0x3bab4909	0.0052272123
232	0x3de9ff49	0.11425645
233	0x3eb6aa8c	0.35676992
234	0xbe682008	-0.22668469
235	0x3e590804	0.21194464
236	0xbd4d49dd	-0.05011927
237	0xbede9b26	-0.43477744
238	0xbecdffca	-0.40234214
239	0xbe576877	-0.21035944
240	0xbea836cc	-0.32854307
241	0xbea11e07	-0.31468222
242	0x3dc9fa73	0.098622225
243	0xbe9ef8fe	-0.3104934
244	0x3e984824	0.2974254
245	0xbe72e8f3	-0.23721676
246	0xbebea641	-0.37236217
247	0xbe360431	-0.17775036
248	0xbe0fb07c	-0.14032167
249	0x3e87741b	0.2645577
250	0xbe2446cd	-0.16042633
251	0xbea82bd3	-0.32845935
252	0x3e20e01e	0.15710494
253	0x3ec3444a	0.38138038
254	0xbebac0df	-0.36475274
255	0xbe9bd266	-0.3043396

classifier.3.bias f4 [10]
0	0xbc370f76	-0.01117312
1	0xbde65fa9	-0.112487145
2	0x3de5af59	0.112150855
3	0x3d12f594	0.035878733
4	0x3d412118	0.0471507
5	0xbc0d734b	-0.008633445
6	0xbe1a4559	-0.15065517
7	0xbdfe7695	-0.124249615
8	0x3dce4f62	0.10073735
9	0x3dcede03	0.10100939
